model_dir/episode-996.pt (torch, 88297 bytes, 99 tensors)

fc1.weight f4 [16, 14]
000000 16 ee fe bd 3d 4f 95 bd fa dc c4 be e6 c7 0f 3e
       -0.12447755 -0.07290504 -0.38449842 0.14041099
000010 e9 b1 8f 3c 50 6c cd 3d 40 95 32 bd b3 e9 c0 3d
       0.017540889 0.100304246 -0.043599367 0.094195746
000020 39 13 53 3e ca 8a 62 be c3 d9 46 bd a2 37 82 3d
       0.20612802 -0.22123256 -0.048547518 0.06358267
000030 55 1e 2f 3e d6 b3 6c be 10 17 03 3f 45 d1 cd 3e
       0.17101415 -0.23115477 0.51207066 0.40198722
000040 26 10 0c 3f 2b f8 ed 3e da 64 20 3e 07 8b 59 be
       0.5471214 0.464784 0.15663472 -0.21244441
000050 37 9a 35 3e 9c db 51 3e fc 4d d8 be d0 36 64 be
       0.1773461 0.2049393 -0.42246997 -0.22286534
000060 1b 6d 03 3e e7 6d ed 3d 42 eb c9 bd 2c d5 81 be
       0.12834589 0.11593228 -0.09859325 -0.2535795
000070 0d 68 0e bf b2 10 ab 3e 5d ec 22 be e8 94 c1 3e
       -0.5562752 0.33411175 -0.15910478 0.3780892
000080 31 ca a7 3e 17 db ed be 82 67 99 be a8 a9 06 be
       0.32771447 -0.46456215 -0.29961783 -0.13150656
000090 d1 c1 52 3e 91 e8 a8 be bc 92 bc 3e df 17 d3 bd
       0.20581748 -0.32989934 0.368307 -0.103072874
0000a0 a5 2b eb 3e 47 64 39 3e d7 7a 95 be 69 39 72 3e
       0.45931736 0.18104659 -0.29195282 0.23654713
0000b0 d7 96 1f bf 23 9f a6 3e 5d 1a 5d 3e 7b 40 7a be
       -0.6233954 0.32543287 0.21592088 -0.2443866
0000c0 d8 4d 14 be 1c 99 72 bb bd 8e 83 be 46 d6 9f be
       -0.1448282 -0.003701753 -0.25694838 -0.31218165
0000d0 7d df 86 3e 70 bd 86 bd 68 1f f9 3e 0c ee 96 3e
       0.26342383 -0.06579101 0.48656774 0.2947849
0000e0 54 ca 02 bf a2 24 17 bd 07 52 ef be 3f bb 74 3e
       -0.5108998 -0.03690017 -0.4674227 0.23899554
0000f0 60 33 a1 3e 4b 37 80 bd 27 d4 84 3d a3 5b 01 3e
       0.3148451 -0.06260546 0.06485777 0.12632613
000100 45 09 18 3d 9c 57 97 be 2b 9d 47 be 33 11 fb 3c
       0.037118215 -0.29559028 -0.19493549 0.03064785
000110 1c 16 c3 bd ac e0 24 bf 47 30 fb bd d6 79 51 3e
       -0.095257014 -0.6440532 -0.122650675 0.20456633
000120 fa f8 8e be 44 06 89 3e 17 46 e2 3e 52 d9 80 be
       -0.2792433 0.26762593 0.441941 -0.25165802
000130 4f d9 38 3e d5 d5 89 3c e1 a5 8c bc 09 cf 34 be
       0.18051647 0.016825596 -0.017168941 -0.17657103
000140 d2 2e 97 be 6c a9 d2 bd bf c2 27 3e 49 a6 94 be
       -0.2952791 -0.10286221 0.16382883 -0.29033116
000150 e3 4b 5b bd 13 00 89 3b bd 40 02 bf dc d6 ab 3e
       -0.053539168 0.004180917 -0.5088003 0.33562362
000160 1a c7 a1 3e 04 32 ba bd 33 76 24 3e 3a d7 8c be
       0.31597215 -0.09091571 0.16060714 -0.27507955
000170 99 1b 9e 3e e3 12 15 bd c4 67 13 bb f2 51 51 be
       0.3088043 -0.036394965 -0.002249227 -0.20441416
000180 bd 64 c2 3e ef 4b 6e be 16 46 c1 be c2 1a fa 3c
       0.37967482 -0.23271154 -0.37748784 0.030530337
000190 73 9f d4 3c bd 53 f4 bc 7c 82 95 3e 7e 2b c2 3d
       0.025954938 -0.029825086 0.29201114 0.09480952
0001a0 7a e4 b8 be 14 84 b0 bc 2c 41 b1 3e 5c ea 03 3d
       -0.36111814 -0.021547355 0.34620035 0.032205924
0001b0 78 27 86 3d 1b 77 03 bd 09 5e 8e 3e 7e cc ec bc
       0.06550497 -0.03209601 0.27806118 -0.028906103
0001c0 80 44 3c 3f 9a 28 a9 bf bd 9d 10 3f 9f 3a 49 bf
       0.7354202 -1.3215516 0.5649069 -0.78605074
0001d0 06 05 61 be 13 db 8b 3f 06 6c 19 3e af 34 8d bd
       -0.21974573 1.0926231 0.14982614 -0.06894814
0001e0 56 38 45 3c ae 35 11 3f 26 b8 91 3e 84 d8 60 3d
       0.012037357 0.56722534 0.28460807 0.054893985
0001f0 36 04 01 3c 04 5f 13 3e dc aa 2a 3e 60 00 2c bf
       0.007874539 0.14391714 0.1666674 -0.6718807
000200 b5 65 1f 3f 9c 87 b2 be 8e da 23 bf 7f 94 27 3f
       0.6226457 -0.34869087 -0.64005363 0.6546096
000210 44 01 bd 3e 86 2a 1a 3c 54 c8 31 3d 8d 7a f0 3e
       0.36915028 0.009409552 0.04340394 0.469685
000220 55 93 db 3e b0 7a 30 be ec bd fa bd a5 9e 64 3e
       0.42885843 -0.17234302 -0.12243256 0.22326143
000230 20 d1 21 bf b2 e7 bf bb e2 92 1f bf 87 25 ce 3d
       -0.63209724 -0.0058564777 -0.623335 0.100657515
000240 ba be c1 3e f0 b4 70 be 27 66 1c 3e 44 e2 ae 3c
       0.37840825 -0.23506522 0.15273343 0.021348126
000250 1d 76 e2 3e 67 24 09 3e 4d 3b f5 bd 81 86 1b 3e
       0.44230738 0.13392793 -0.11974201 0.15188028
000260 56 30 fc 3b 6f fc ae bd 77 ce b0 be ab 5d 65 bd
       0.007696192 -0.08544242 -0.3453252 -0.05599753
000270 69 cb 3b be cf e1 11 bd f2 27 bd 3e e2 21 96 be
       -0.18339314 -0.03561574 0.36944538 -0.29322726
000280 41 23 01 3f da 73 2c 3d 7a c3 39 3f 7e ce 34 3e
       0.5044442 0.042102672 0.725639 0.17656896
000290 76 b9 5e 3d df 67 5b bd 3f b0 e7 bc 6d 63 61 be
       0.054376088 -0.053565856 -0.028282283 -0.22010584
0002a0 ca c5 0a bf 45 72 15 be 9b 3e 05 bf 82 0a b3 3d
       -0.5420805 -0.14594372 -0.52048653 0.087422386
0002b0 44 97 ba 3e f7 ca d3 bc 59 53 f9 3e 10 a4 01 3e
       0.36443532 -0.025853617 0.48696402 0.12660241
0002c0 e6 2d 1b 3f 14 01 13 3d 6f e7 58 be 89 3f 9c 3d
       0.6061691 0.0358897 -0.21182035 0.07629306
0002d0 22 dc da bd 45 20 eb be b0 3f 9d be ef a7 f4 bc
       -0.10686518 -0.45923057 -0.30712652 -0.029865233
0002e0 9b b8 2b be e4 d1 59 3e 35 fe 57 be f1 d3 ba be
       -0.1676964 0.21271473 -0.21093066 -0.36489823
0002f0 67 5d e0 3c cd 33 85 be 0b ee 0a 3e 50 75 aa be
       0.027388288 -0.26016083 0.13567369 -0.33292627
000300 fb 24 1b 3e b7 0a 1a be aa da 08 3f ca 23 c9 be
       0.15150826 -0.1504315 0.53458655 -0.39285117
000310 be 2d 0b 3e 00 89 29 bf 8a 7a d0 3e 7a 34 87 bf
       0.13591668 -0.6622467 0.4071849 -1.056289
000320 2b 4b 98 be de d5 14 3f 3f 51 58 3e 2e 70 93 3d
       -0.2974485 0.58138835 0.21124743 0.07199131
000330 4f 74 b9 3e 7a b5 ce 3e 99 e0 75 3e ea eb 88 3d
       0.3622155 0.4037283 0.24011458 0.06685622
000340 6d 15 9e 3e 54 28 e0 3e 47 cc de 3d c8 50 99 3d
       0.30875722 0.43780768 0.108788066 0.07486111
000350 34 0d 80 be a6 96 46 3e 4f a7 98 3e 99 b5 a3 3e
       -0.25010073 0.19393405 0.29815146 0.31974486
000360 5e 87 ec 3d 83 86 4a be b1 e7 eb bd fa 8e 04 3e
       0.11549257 -0.19777875 -0.11518801 0.12945166
000370 d0 58 50 be 5d e7 1f 3e 1b cf 2d be 3d 2b 04 bf
       -0.2034638 0.15615602 -0.16973536 -0.51628476

fc1.bias f4 [16]
000000 1f d9 79 bd 06 0b e7 be ae bc c1 3d 80 fe ad 3e
       -0.06099808 -0.45125598 0.09459816 0.3398323
000010 52 fa 25 3e 59 50 ab 3d 53 68 84 be 97 1e c0 be
       0.16208771 0.083649345 -0.25860843 -0.37523338
000020 64 51 a3 3e 06 1a 9b 3d cc 06 45 bc 28 4c a0 bd
       0.31898034 0.07573323 -0.012025546 -0.07827026
000030 87 8b 67 be 9b b5 91 bc da cd 93 3e 7e 08 a5 be
       -0.22611819 -0.017786792 0.2886799 -0.32233042

fc2.weight f4 [8, 16]
000000 60 48 a1 be f2 3d fc be 53 78 17 be 33 16 88 be
       -0.3150053 -0.4926601 -0.14791994 -0.26579437
000010 7b 27 52 be c6 1c 8b be bc e5 0c bf 10 01 8a 3c
       -0.20522873 -0.2717039 -0.55038047 0.01684621
000020 67 4f 09 3f 85 70 a2 3e 9f 9e 53 3c 7f 3c c6 bd
       0.53636783 0.3172647 0.012916236 -0.096795075
000030 88 52 bc bd 1a 1c f4 ba ee 44 5d 3f 0b a0 9c be
       -0.09195429 -0.0018624098 0.86433303 -0.30590853
000040 4f 99 9e bd 5a 24 78 3e cb ba 02 be c2 ff 0e be
       -0.07744085 0.24232617 -0.12766568 -0.13964751
000050 78 45 f7 3d 3f d3 ca 3d af cc 50 be c1 ed ef bd
       0.12073797 0.09903573 -0.2039058 -0.1171527
000060 5c 44 db bd 2c 0e d2 be f2 e3 b4 3d b1 97 25 be
       -0.10706398 -0.41026437 0.088325396 -0.16171147
000070 c4 ea 32 3e 9d 4b 35 be 29 0f b8 bc 30 bd bf 3d
       0.17472368 -0.17704625 -0.022468166 0.093622565
000080 01 01 4a 3c 65 d8 73 bd b2 f1 85 be 86 f8 87 be
       0.012329341 -0.05953254 -0.2616096 -0.26556796
000090 4b 57 6b be 0b 48 f7 bb ca d0 08 be 81 4d 92 be
       -0.22982518 -0.00754643 -0.13360897 -0.28574756
0000a0 30 4d 8e be a6 43 94 bd 0f b0 72 3e 9b 51 c7 3d
       -0.27793264 -0.072394654 0.23699974 0.09732362
0000b0 ac 6c 5f bd c0 ff 90 bc 7a 79 5a be 2d e1 81 3e
       -0.054546997 -0.017700076 -0.21335402 0.25367108
0000c0 ea 9a 92 be 1d 6b b3 be eb 1b 13 3e 09 ff c0 bc
       -0.28633815 -0.35042658 0.14366119 -0.02355911
0000d0 06 a8 71 bd 2f 8f 5f be 7c 19 c8 3d d4 1a d1 be
       -0.05899813 -0.21831964 0.09770486 -0.4084078
0000e0 5d 58 40 be 4b ca dd be ab 45 f6 bd c7 d0 f1 bc
       -0.18783708 -0.433184 -0.12025007 -0.029518498
0000f0 96 48 d2 bd 3a 0d 84 be 03 d2 09 be 69 09 95 be
       -0.10267751 -0.2579134 -0.1345902 -0.29108742
000100 15 81 11 be 07 f1 92 be 15 36 06 bd 33 b2 a4 3e
       -0.14209397 -0.28699514 -0.03276642 0.32167205
000110 d5 17 d0 bd 1a 01 b9 3c 78 a9 21 be ba 31 20 be
       -0.101607956 0.022583533 -0.15787303 -0.15643969
000120 63 c8 9b be 68 90 5f be b5 a1 d9 3d 2d 60 0c be
       -0.3042632 -0.2183243 0.10626546 -0.13708563
000130 d7 bb eb bd c2 9d 8e 3e 84 b9 88 bd 27 43 64 3d
       -0.11510437 0.27854735 -0.06676009 0.055728104
000140 af 1b 9f 3d f0 e1 98 be 0c cd 17 3e a3 fd 19 3e
       0.07768952 -0.29859877 0.14824313 0.15038161
000150 a9 26 5f 3e 44 b2 5d 3d 51 dd ab bd f3 7e 9b 3c
       0.21792091 0.054125085 -0.08391822 0.018981433
000160 e9 a2 d6 be f8 34 e5 3d 0f de 4a 3e 2c ed 47 3e
       -0.41921166 0.111917436 0.19811271 0.19524068
000170 70 46 99 3e a6 09 20 be d0 55 35 ba 4e 06 e1 bb
       0.29936552 -0.1562868 -0.0006917389 -0.0068672067
000180 77 ed 55 be 48 73 87 be db 87 bd bc 6b 73 95 bd
       -0.20891367 -0.2645514 -0.02313607 -0.07297405
000190 b6 69 5e be 25 7a 8c be a4 1c 4c be 5c 3b 41 3e
       -0.21720013 -0.2743694 -0.199328 0.188703
0001a0 02 f8 02 be 6d 95 e0 bd a7 fc c1 bd e4 6f 52 be
       -0.1278992 -0.10966001 -0.09472018 -0.20550495
0001b0 03 83 9d be 65 60 6b be 9b f6 25 3d a8 ff a9 3d
       -0.30764017 -0.2298599 0.040518384 0.08300716
0001c0 98 09 02 bd 4b b5 38 be d6 4a c2 3e 7c ba a0 3e
       -0.03174743 -0.18037908 0.3794772 0.31392276
0001d0 fe 20 8c 3e 75 38 8b 3d c8 b7 18 3e 78 6f 3b be
       0.2736892 0.06797878 0.14913857 -0.1830424
0001e0 63 bc 8d be 0c 6a a1 be 77 5f 86 3e 42 7e dd 3d
       -0.2768279 -0.3152622 0.2624471 0.108150974
0001f0 83 77 5a 3e e0 6d 03 3e 9a 10 a5 be 83 d6 fa bb
       0.21334653 0.12834883 -0.32239228 -0.0076549663

fc2.bias f4 [8]
000000 36 a5 9f 3e 0c 86 64 be b4 30 7f be 14 af 61 be
       0.31180733 -0.2231676 -0.24920923 -0.22039443
000010 57 d2 3b bc 49 76 54 3e 6b 43 d1 ba 86 f9 0d 3e
       -0.011463723 0.20748247 -0.0015965527 0.13864717

fc3.weight f4 [2, 8]
000000 e8 97 bb be 97 b8 d3 3d 5f a1 b4 3d 99 0c fd 3d
       -0.36639333 0.10337942 0.088198416 0.123559184
000010 ca b5 02 be 09 b8 df be dc 60 43 3e d3 18 b9 be
       -0.1276466 -0.43695095 0.19079918 -0.36151752
000020 a2 d4 09 bf f8 b0 60 3e e6 5c 92 3e c3 36 f5 3d
       -0.53840077 0.21942508 0.285865 0.119733356
000030 15 d6 13 3d 7f 29 45 bb 93 6a bb 3c e8 53 b8 3e
       0.036092836 -0.0030084548 0.022877967 0.36001515

fc3.bias f4 [2]
000000 b8 90 94 be c5 08 aa be
       -0.29016662 -0.33209816

exp_avg f4 [16, 14]
000000 44 e8 84 37 9c 74 0f 38 01 85 cd 37 0f 1c 1e 38
       1.5843783e-05 3.4202458e-05 2.449984e-05 3.7696267e-05
000010 6b 06 20 37 ec 48 81 b6 ff d8 28 35 ae 5b 04 38
       9.5382375e-06 -3.852989e-06 6.290065e-07 3.1556636e-05
000020 c2 c1 16 b7 e3 3d 8b b6 07 74 9f 36 b8 af 94 37
       -8.9858095e-06 -4.1497274e-06 4.7520766e-06 1.77248e-05
000030 26 59 00 b7 29 ee 01 b7 76 78 7e ba 38 29 be ba
       -7.650151e-06 -7.74445e-06 -0.0009707281 -0.0014508134
000040 1e bb 7d ba a2 e9 c6 ba 67 37 7b 39 78 5e 93 39
       -0.0009679067 -0.0015175829 0.00023957864 0.0002810841
000050 40 20 c2 b9 95 ee 15 ba eb fc 44 39 27 98 b3 b6
       -0.00037026592 -0.00057194504 0.00018786236 -5.3523286e-06
000060 d3 b7 de b9 4f 00 38 ba d6 16 00 39 48 a2 55 b7
       -0.000424801 -0.0007019089 0.00012215538 -1.2733573e-05
000070 c6 ef c3 b8 03 ba 14 b9 d9 26 00 b9 d8 2d 0e b9
       -9.342986e-05 -0.00014183675 -0.00012221503 -0.00013559253
000080 9a be e3 37 3d 8f c5 37 9f e3 84 b9 04 b0 ea b8
       2.7149264e-05 2.355093e-05 -0.00025346593 -0.00011190775
000090 1e cf 90 b7 6e 6f 8e b7 6e cb 4a b9 8b ca 17 b8
       -1.7262584e-05 -1.6979608e-05 -0.00019340005 -3.618984e-05
0000a0 06 10 0a 36 62 8c 99 b7 74 7e b9 b8 b7 2e e1 b8
       2.057293e-06 -1.8304392e-05 -8.845041e-05 -0.000107375374
0000b0 42 e9 e8 b8 48 d2 b1 b8 4e 00 92 38 7c 31 de 37
       -0.0001110607 -8.4791856e-05 6.961879e-05 2.6487505e-05
0000c0 6f 12 ae b9 b5 0a 18 b8 ae 8b 46 b7 55 c8 23 b8
       -0.000332016 -3.6249596e-05 -1.1834241e-05 -3.9048802e-05
0000d0 5d bd 8f b9 7b a4 21 38 bd ab a3 b7 8e 9b 97 b8
       -0.00027416172 3.8538576e-05 -1.9511086e-05 -7.2292154e-05
0000e0 8e bd 00 b8 40 71 18 b8 82 f7 1c b8 22 60 84 b7
       -3.0694115e-05 -3.6345096e-05 -3.7423808e-05 -1.5780392e-05
0000f0 32 bc d9 b6 70 fb 14 33 06 30 5d b9 33 82 d1 b7
       -6.489013e-06 3.4687616e-08 -0.00021094093 -2.497537e-05
000100 ec 54 9d b7 13 3a 65 b7 cb f5 51 b9 ed 47 07 39
       -1.8755403e-05 -1.3662985e-05 -0.00020023358 0.00012901398
000110 06 14 33 b7 f5 f8 c0 37 60 40 8e b8 1e d3 4c b8
       -1.06738935e-05 2.3004113e-05 -6.7830784e-05 -4.883401e-05
000120 b3 df 7a b8 8f fa 1a b8 1a b3 e2 36 66 cb c6 36
       -5.981298e-05 -3.6949812e-05 6.756175e-06 5.9245385e-06
000130 73 a9 70 b8 ee 47 57 b8 82 e8 be 36 f8 fb 8d b7
       -5.737827e-05 -5.1326984e-05 5.6895087e-06 -1.6925842e-05
000140 16 97 9f b7 82 32 65 38 e1 1f 28 36 4b 01 7a 37
       -1.9024632e-05 5.4644894e-05 2.5052507e-06 1.4901462e-05
000150 50 f2 d5 35 3c d3 1d 38 42 25 a0 36 68 21 18 38
       1.5940259e-06 3.7628444e-05 4.772709e-06 3.6270736e-05
000160 e5 07 3b b5 59 71 fb b3 33 fc a8 36 6c 09 90 38
       -6.9674417e-07 -1.1708716e-07 5.03615e-06 6.86821e-05
000170 f3 9f de b6 79 9f d0 b6 63 53 71 b7 a4 29 94 38
       -6.634736e-06 -6.217448e-06 -1.4384134e-05 7.064946e-05
000180 a5 80 35 b7 8d 9d fb 35 43 6d b3 37 25 f1 20 35
       -1.0818393e-05 1.8746811e-06 2.1389342e-05 5.9955556e-07
000190 02 db d9 37 ed 8d a2 b5 81 f0 2f b6 90 2b 02 34
       2.59704e-05 -1.2111246e-06 -2.6217024e-06 1.2123041e-07
0001a0 f3 b7 8f 38 02 13 d3 37 6a 53 07 37 51 af cf 36
       6.8530346e-05 2.5162011e-05 8.066048e-06 6.1894903e-06
0001b0 6d 06 1c 38 7f 8a 0f b8 2b d0 9a 35 31 ed 8d b6
       3.7199283e-05 -3.422284e-05 1.1534479e-06 -4.22974e-06
0001c0 93 af 45 b8 27 0c 80 3a 00 74 a5 b7 1b a8 7e 3a
       -4.7131976e-05 0.0009769247 -1.972355e-05 0.0009714381
0001d0 fc ae 41 b9 93 22 79 b9 1b 85 d9 b8 0a 9c 11 ba
       -0.00018471101 -0.0002375937 -0.00010372159 -0.00055545627
0001e0 c1 e3 f0 b8 f2 4d e7 b6 a0 cf 5f b9 ef 7b d7 b9
       -0.00011486514 -6.8934105e-06 -0.00021344284 -0.00041100333
0001f0 54 e8 be b8 a3 1a 5b 37 7e 29 91 3a 32 43 e5 3a
       -9.1031805e-05 1.3059619e-05 0.0011074988 0.0017491339
000200 ef fa 97 3a 3a 20 e5 3a 0b e3 ba b9 a1 03 bf b9
       0.001159517 0.0017480918 -0.00035645845 -0.00036433063
000210 1b 5c 5f 3a 01 25 94 3a b8 34 24 b9 26 61 f6 38
       0.00085204997 0.0011302532 -0.00015659898 0.000117482894
000220 71 2d 48 3a 68 96 9e 3a 94 3e 1b b9 6b c6 14 39
       0.0007636166 0.0012099268 -0.00014805264 0.00014188296
000230 19 de 8b b8 dc a6 6c b8 28 13 91 b8 a0 c8 3a b8
       -6.6694054e-05 -5.6422185e-05 -6.917707e-05 -4.4532702e-05
000240 40 a4 af b7 24 27 8d b6 78 a5 4a b9 f2 a4 48 b8
       -2.093811e-05 -4.206684e-06 -0.00019325863 -4.7837333e-05
000250 9a a6 03 b7 d0 57 13 37 c8 fa 4b b9 a7 dd cd 38
       -7.846998e-06 8.782328e-06 -0.00019453012 9.816448e-05
000260 17 85 0f b7 b1 09 08 38 38 2b 60 37 fc 6a 59 b8
       -8.554452e-06 3.2433953e-05 1.3361503e-05 -5.183647e-05
000270 24 a9 67 37 9b 69 50 b8 8d 83 b8 35 a9 81 35 37
       1.3808054e-05 -4.9689417e-05 1.3747355e-06 1.081863e-05
000280 53 ab 14 b8 fb 6f 1f 38 2e 82 c3 b6 26 d5 0c 36
       -3.5445508e-05 3.8012844e-05 -5.826608e-06 2.0985694e-06
000290 24 13 b0 36 c6 66 38 b8 be a8 1a 37 59 f0 73 b6
       5.247437e-06 -4.3964734e-05 9.218404e-06 -3.6349722e-06
0002a0 d4 96 30 b8 ae 2d 90 b8 be ef 48 b8 9b 1b 89 b8
       -4.210214e-05 -6.8749636e-05 -4.7906993e-05 -6.537811e-05
0002b0 fc d2 14 b7 a6 08 5f 36 5e 33 cc b8 21 9e 1f b8
       -8.870611e-06 3.3234624e-06 -9.737046e-05 -3.8055823e-05
0002c0 58 f4 7b b6 e6 6b ce 36 6a d6 f4 b8 7c fa 01 b8
       -3.7544141e-06 6.1518394e-06 -0.000116747644 -3.098928e-05
0002d0 35 f1 5c 36 14 df 23 36 ac 1c 92 b7 13 37 47 b7
       3.2922956e-06 2.4418741e-06 -1.7417908e-05 -1.1874147e-05
0002e0 26 12 97 b7 c9 0a 5a b7 dc 05 6f 36 5a f8 29 36
       -1.8009054e-05 -1.2996324e-05 3.5617186e-06 2.5327522e-06
0002f0 ca 1f eb b7 43 79 7e b6 49 b8 30 b6 aa 62 c1 b5
       -2.8028986e-05 -3.7919533e-06 -2.6333312e-06 -1.4408336e-06
000300 db ba 5e b7 5a d8 db b6 f7 1a 54 b5 c4 8e 48 b5
       -1.3275737e-05 -6.5518952e-06 -7.9015393e-07 -7.471356e-07
000310 0d 9e 35 b9 26 6a c6 3a 3f 1a f5 b8 b6 12 c2 3a
       -0.00017320384 0.0015137836 -0.00011687399 0.0014806602
000320 28 1b ca b9 26 ea d7 b9 09 65 51 38 f8 f0 3d ba
       -0.00038548675 -0.0004118245 4.992358e-05 -0.0007245685
000330 9d 2f cd b8 47 d4 c7 38 c6 d7 65 b9 74 15 26 ba
       -9.7840304e-05 9.528599e-05 -0.00021919524 -0.0006335594
000340 bb 4a a0 b8 de c9 0d 39 42 36 9b b8 04 61 6e b8
       -7.643314e-05 0.00013522009 -7.401082e-05 -5.6833975e-05
000350 06 7f 91 b8 84 36 8a b8 e2 ce 26 37 7b e0 cd 36
       -6.937799e-05 -6.590507e-05 9.94254e-06 6.135609e-06
000360 41 cd c3 37 fd 11 05 b8 16 82 a1 37 3c 66 00 36
       2.334139e-05 -3.1726424e-05 1.9253272e-05 1.9132995e-06
000370 9a 36 48 38 d4 f7 bb b8 4a 26 c2 37 a8 6b 11 b6
       4.7734567e-05 -8.9630164e-05 2.3144432e-05 -2.1669348e-06

exp_avg_sq f4 [16, 14]
000000 8d ee 05 32 b3 ae eb 32 f8 dd 01 32 4d d9 f8 32
       7.795859e-09 2.7437045e-08 7.559258e-09 2.8969817e-08
000010 9c e0 43 30 03 e2 0b 30 b1 63 52 33 37 0c 02 33
       7.1259776e-10 5.088909e-10 4.8985104e-08 3.0279093e-08
000020 29 18 d7 30 ef 5f 1d 2f 81 4a 13 33 b3 a9 22 33
       1.5650176e-09 1.4313149e-10 3.4293866e-08 3.7872905e-08
000030 bb 4c b4 30 69 29 35 2f 09 2f 53 34 ad 1f 72 34
       1.3118532e-09 1.6476566e-10 1.9668018e-07 2.254953e-07
000040 09 52 52 34 08 99 7e 34 2a 31 c6 31 ce 1d ba 31
       1.9587618e-07 2.3711266e-07 5.7681477e-09 5.416701e-09
000050 cd d2 d4 33 a4 db 03 35 3f 52 2b 31 2c a4 f7 31
       9.910364e-08 4.912092e-07 2.4930527e-09 7.2073103e-09
000060 00 bd 13 34 40 7a de 34 28 90 4e 31 62 ce 63 31
       1.37592e-07 4.143967e-07 3.0058889e-09 3.3150163e-09
000070 0f 4f 48 33 b2 1d a7 34 c0 5c 25 33 26 13 b1 34
       4.6638032e-08 3.112778e-07 3.8501412e-08 3.2982751e-07
000080 f4 0a 55 31 8e be 21 32 a2 61 93 34 d7 99 0d 35
       3.1001806e-09 9.4147605e-09 2.745192e-07 5.275046e-07
000090 a1 73 25 32 de 2e 47 31 78 2a 16 34 0f 49 03 35
       9.630555e-09 2.8984952e-09 1.3985289e-07 4.8907617e-07
0000a0 43 e3 9e 31 94 e6 0a 31 aa e3 07 35 74 3a 8f 35
       4.624242e-09 2.0212712e-09 5.0622714e-07 1.0671342e-06
0000b0 d0 23 f3 34 0c 86 8e 35 bd 1c 20 33 26 2b 1b 33
       4.5288334e-07 1.0618837e-06 3.727904e-08 3.6127993e-08
0000c0 c0 11 1f 35 5e 0b 44 36 89 09 e8 32 5d 59 de 32
       5.9257945e-07 2.9212893e-06 2.701269e-08 2.588484e-08
0000d0 46 95 cc 34 8a 2e 3a 36 4e 89 8c 32 1e e1 d2 32
       3.8106572e-07 2.774325e-06 1.6360584e-08 2.4549589e-08
0000e0 6d 24 2c 35 9f 3c b8 35 2b e3 1d 35 1e bc bd 35
       6.4128e-07 1.3726711e-06 5.881763e-07 1.4136347e-06
0000f0 8a 98 50 33 08 5b 52 33 ce e2 c2 34 09 82 88 36
       4.8567507e-08 4.8977228e-08 3.6300338e-07 4.068254e-06
000100 8b 24 01 33 67 84 12 33 cd ec a7 34 bd 3e 52 36
       3.006839e-08 3.4113693e-08 3.127847e-07 3.1328957e-06
000110 98 60 03 33 ed 49 94 32 58 e8 f7 34 74 48 15 35
       3.0588666e-08 1.7263085e-08 4.6176388e-07 5.561226e-07
000120 08 4d e3 34 1d 16 0d 35 b7 1a fc 32 77 d6 aa 32
       4.2338092e-07 5.255877e-07 2.934881e-08 1.9888132e-08
000130 3b 12 93 34 e0 a1 e5 35 cd 88 a0 32 31 0f b1 32
       2.7394148e-07 1.7108941e-06 1.8688661e-08 2.061242e-08
000140 69 36 3e 34 d3 62 b7 35 b4 b0 65 32 9d a1 2e 32
       1.7714923e-07 1.3663324e-06 1.3369732e-08 1.016488e-08
000150 ca 3c 15 34 16 02 69 34 c4 eb ef 33 f3 3a 6e 34
       1.3898821e-07 2.1700575e-07 1.117219e-07 2.2186923e-07
000160 4f a7 dd 31 51 14 df 31 d1 8a 18 34 b2 ba 13 35
       6.4509673e-09 6.492464e-09 1.4206604e-07 5.5033445e-07
000170 d3 e2 b6 30 5c a9 b1 31 e6 97 ad 33 9d 38 13 35
       1.330671e-09 5.170632e-09 8.0835704e-08 5.484415e-07
000180 fc 24 3b 31 86 69 b2 31 71 31 09 31 ab 19 11 31
       2.7233105e-09 5.1924784e-09 1.9964228e-09 2.1114868e-09
000190 de 9d 05 31 a8 9e fc 30 95 41 09 2e 49 72 82 2e
       1.9443784e-09 1.8380506e-09 3.1208442e-11 5.932017e-11
0001a0 90 e1 ed 30 b6 a3 f6 30 55 76 0f 2e 59 bd d1 2d
       1.7308128e-09 1.7945385e-09 3.2619536e-11 2.3844636e-11
0001b0 c6 5c a5 30 20 f7 4b 30 e4 4d 4f 2e db 4f 83 2e
       1.2031698e-09 7.4202156e-10 4.713553e-11 5.9713755e-11
0001c0 ee cd d3 33 3a 3f 87 33 06 f1 bc 33 fb a6 80 33
       9.8629116e-08 6.297928e-08 8.798274e-08 5.990838e-08
0001d0 36 7e 17 32 ed 17 44 31 6c 14 c6 33 9a b5 13 34
       8.818054e-09 2.8535354e-09 9.223808e-08 1.3756508e-07
0001e0 68 1b a0 31 5e 12 10 32 0f 96 b3 33 4e 8f be 33
       4.6597286e-09 8.386079e-09 8.3626325e-08 8.8736314e-08
0001f0 5c bd 79 31 e1 a5 f2 31 ed ff c5 35 cd e3 b6 35
       3.6341907e-09 7.061985e-09 1.4752128e-06 1.3626355e-06
000200 fd 60 c1 35 af f8 bb 35 ca 5d 8b 33 82 05 30 33
       1.4407848e-06 1.4004962e-06 6.489752e-08 4.0983203e-08
000210 77 e5 86 35 47 f9 84 36 3a d5 22 32 0d 97 7b 33
       1.0050561e-06 3.9629263e-06 9.478123e-09 5.857787e-08
000220 98 27 8e 35 1f 9c 4f 36 1b 86 17 32 9a e5 4a 33
       1.0591348e-06 3.0936278e-06 8.819849e-09 4.724061e-08
000230 6b 2e 1e 34 fa d3 2d 35 dc 91 11 34 14 14 2b 35
       1.4731783e-07 6.475599e-07 1.355724e-07 6.373168e-07
000240 52 d7 33 32 6a df 91 32 55 48 54 34 d9 a4 be 35
       1.04681295e-08 1.6981819e-08 1.9770353e-07 1.420408e-06
000250 72 e5 bf 31 7c 67 31 32 38 a4 b5 34 ec d7 bb 35
       5.5849165e-09 1.0326286e-08 3.3833362e-07 1.3995427e-06
000260 96 b1 2c 32 9a b9 ff 31 dd e2 3c 32 ce 7e 80 33
       1.0052096e-08 7.442577e-09 1.0994623e-08 5.98353e-08
000270 e4 94 20 32 f7 ba 80 33 05 c5 6b 30 65 3f a2 30
       9.3470796e-09 5.994473e-08 8.5772484e-10 1.1805069e-09
000280 a2 9e 54 32 1e fc f4 33 eb 8f 27 30 4f 55 38 30
       1.2376093e-08 1.1407995e-07 6.0958766e-10 6.706004e-10
000290 1c 48 74 33 61 9d a5 33 e4 f8 94 30 84 8c f4 2f
       5.687626e-08 7.712038e-08 1.0839156e-09 4.4483184e-10
0002a0 d4 37 14 33 cc 74 8c 34 3e 44 0e 33 0c ec 8d 34
       3.450971e-08 2.6162013e-07 3.3124017e-08 2.6435043e-07
0002b0 58 ae 67 31 38 e0 dc 31 5a 95 ba 33 7e 22 3f 35
       3.3714027e-09 6.4283334e-09 8.688467e-08 7.120324e-07
0002c0 1f 5d 1e 31 b9 92 05 32 93 96 59 34 00 b8 f9 34
       2.304496e-09 7.77498e-09 2.0264478e-07 4.6513742e-07
0002d0 56 f8 e1 31 77 5a a9 30 dc a1 08 32 23 6d 01 33
       6.5765944e-09 1.232208e-09 7.9530444e-09 3.0134412e-08
0002e0 ad d8 db 31 28 ca fe 32 39 78 ae 30 3f 3b 48 30
       6.398372e-09 2.9661422e-08 1.2694336e-09 7.284377e-10
0002f0 d1 70 03 33 2c 18 20 33 a8 10 d5 30 40 90 05 30
       3.060342e-08 3.7274887e-08 1.5502524e-09 4.859011e-10
000300 8e 55 2c 33 b8 3f 59 33 62 f5 aa 30 d3 96 ba 2f
       4.0124682e-08 5.05822e-08 1.243887e-09 3.394037e-10
000310 6e 12 93 34 62 18 8b 34 b3 1f 93 34 30 6e 89 34
       2.7394293e-07 2.5908508e-07 2.7403948e-07 2.559841e-07
000320 66 b9 52 32 ee df 22 32 fa 88 65 34 8b e1 c9 34
       1.22657635e-08 9.480557e-09 2.1377119e-07 3.7603272e-07
000330 d9 30 2b 31 56 4e 54 32 9d 96 6f 34 f1 72 c6 34
       2.4911542e-09 1.2357836e-08 2.2313402e-07 3.6964005e-07
000340 a2 52 29 31 17 f1 5b 32 8c 29 3a 32 43 c2 0d 34
       2.4639708e-09 1.2802295e-08 1.0836072e-08 1.320232e-07
000350 fa ea 75 32 4c 21 12 34 89 1e a1 30 7f cf 17 31
       1.4314304e-08 1.3609423e-07 1.172297e-09 2.209134e-09
000360 b3 4a ab 33 b3 df 02 34 c0 41 0b 31 35 f6 36 2f
       7.976396e-08 1.2188575e-07 2.0264537e-09 1.6640274e-10
000370 f3 7b 64 34 e0 a9 72 34 64 69 00 32 77 68 0f 30
       2.1279247e-07 2.2599806e-07 7.474544e-09 5.217155e-10

exp_avg f4 [16]
000000 18 d9 55 b7 34 e8 9d b9 bf 6d 7b b8 fb 08 33 b9
       -1.2746335e-05 -0.00030118378 -5.9945272e-05 -0.00017074116
000010 f6 59 45 38 ee d8 17 b8 6a b4 f6 35 24 d8 ae b7
       4.7052243e-05 -3.6203237e-05 1.8380936e-06 -2.0843065e-05
000020 2b 3a 60 39 fc f3 2f 3a ee 7a cd 38 58 04 bd b7
       0.00021383974 0.0006712077 9.798059e-05 -2.2532578e-05
000030 8a cd e2 37 0d 95 80 36 aa 41 13 3a bb aa e2 b7
       2.7037011e-05 3.832049e-06 0.00056173897 -2.7020802e-05

exp_avg_sq f4 [16]
000000 f6 f4 92 32 9d 1c d9 33 2b 3a 8b 34 c5 34 50 35
       1.7108032e-08 1.0110055e-07 2.593309e-07 7.756283e-07
000010 78 82 91 35 e6 79 ca 34 fd 00 b3 33 b3 f9 86 30
       1.0841313e-06 3.7714125e-07 8.335517e-08 9.820752e-10
000020 38 19 f5 33 a2 f1 3a 35 70 61 ca 34 35 a5 cc 32
       1.1413289e-07 6.964202e-07 3.7696327e-07 2.3823853e-08
000030 bb b2 34 34 cc d5 aa 32 bc 03 fa 33 88 b1 c7 33
       1.6828828e-07 1.9887828e-08 1.16422115e-07 9.2989524e-08

exp_avg f4 [8, 16]
000000 84 64 ce b4 96 f3 3e 3b b8 77 b2 38 14 fe 55 39
       -3.8443625e-07 0.0029136888 8.510001e-05 0.00020407914
000010 23 f1 09 38 2a d4 60 38 2f a4 c5 35 b2 88 8d 37
       3.288792e-05 5.3603355e-05 1.4725427e-06 1.6872164e-05
000020 57 e9 60 bb 15 30 43 b8 cd dc bf 38 ac 4b 25 39
       -0.003431877 -4.6536403e-05 9.148717e-05 0.00015763816
000030 4a ec dd 37 0f e7 a6 38 7b 87 2a bb d6 f8 a7 37
       2.6455284e-05 7.958535e-05 -0.0026020694 2.0023825e-05
000040 d5 95 58 37 a6 62 a2 bb 6b 74 fb 37 e1 6a 8c 38
       1.2909489e-05 -0.0049556075 2.9975743e-05 6.695628e-05
000050 a4 90 be 38 89 ce 3d 38 ef 10 4c 38 ca 0d e9 35
       9.0868474e-05 4.5253462e-05 4.865316e-05 1.7363866e-06
000060 86 96 d2 b8 58 8e 0d ba 87 bf 16 39 60 3f d7 37
       -0.000100416175 -0.0005399934 0.00014376464 2.5659509e-05
000070 4d de e1 38 28 7c 24 37 2f 13 04 b6 15 a2 23 b8
       0.00010770243 9.804069e-06 -1.96807e-06 -3.901318e-05
000080 9d 0e f9 34 43 88 ba 34 c8 6a 07 33 88 0b 06 33
       4.6390497e-07 3.4744343e-07 3.1529254e-08 3.1209794e-08
000090 10 fd 10 36 5b 4e 12 36 82 98 50 35 e8 0b 27 b1
       2.1604974e-06 2.1801304e-06 7.7707966e-07 -2.4308466e-09
0000a0 16 26 db 33 37 ce 00 36 d6 fe 22 36 64 d5 c6 35
       1.020491e-07 1.919352e-06 2.4288215e-06 1.4814254e-06
0000b0 1b 4c 50 36 b9 5b 2d 32 38 a1 9c 32 a6 95 c1 35
       3.1038714e-06 1.0090781e-08 1.8234104e-08 1.4423174e-06
0000c0 87 8c 04 37 9f 95 cd 37 e5 a1 08 38 d3 47 87 38
       7.900532e-06 2.4507577e-05 3.2575703e-05 6.45068e-05
0000d0 11 70 84 38 21 2f 87 38 b1 3d ca 37 ca 6a 3c 35
       6.3151245e-05 6.44608e-05 2.4109004e-05 7.0190856e-07
0000e0 4e 8f bd 35 1a 12 93 37 c4 c0 65 38 fc 35 1f 37
       1.4123304e-06 1.7532195e-05 5.477738e-05 9.489708e-06
0000f0 85 93 28 38 96 d5 9b 36 c3 95 18 35 b9 a3 42 37
       4.019171e-05 4.6442246e-06 5.6842345e-07 1.1601421e-05
000100 f9 0d 83 37 68 ec 8b 36 78 3f af 37 e9 45 0e 38
       1.5622923e-05 4.170044e-06 2.089118e-05 3.3920547e-05
000110 be ae 3c 38 84 48 04 38 3f 2e 04 37 97 ba 70 37
       4.4985434e-05 3.1538788e-05 7.878581e-06 1.4348559e-05
000120 19 49 d1 35 cf 86 31 37 b6 fd 28 38 fc a0 54 36
       1.5592988e-06 1.058141e-05 4.0290608e-05 3.1684167e-06
000130 0c 37 0c 37 d1 82 67 35 b5 02 a7 36 ae 03 03 38
       8.357467e-06 8.624457e-07 4.977303e-06 3.123626e-05
000140 79 eb 07 38 90 ee 0d b8 e7 f4 4d 38 38 f7 03 38
       3.240581e-05 -3.38392e-05 4.910389e-05 3.1463074e-05
000150 93 14 c3 38 02 82 58 38 a7 4c 9d b7 47 f0 26 38
       9.302157e-05 5.1619492e-05 -1.8751552e-05 3.980126e-05
000160 45 a3 b1 39 95 0b d5 38 94 61 43 38 e0 7b 72 37
       0.00033881716 0.00010158789 4.65825e-05 1.4453166e-05
000170 05 2d 7e b8 da 77 0f b6 79 e9 cc 39 eb 86 e5 38
       -6.0600247e-05 -2.1378423e-06 0.00039083863 0.00010944701
000180 21 94 82 2e e9 fb 7f 2c 16 d4 b6 31 d4 f5 15 32
       5.9380285e-11 3.6377518e-12 5.3210085e-09 8.728836e-09
000190 0c 6a e6 b2 bb bd 84 b1 79 8a 9a 2a ba d7 03 b6
       -2.6823749e-08 -3.8632755e-09 2.745198e-13 -1.964609e-06
0001a0 81 f8 8d b3 01 4f 2f af b0 d2 fa 2c 37 be 4c 2d
       -6.611027e-08 -1.5944225e-10 7.1288184e-12 1.1638294e-11
0001b0 08 1c a8 2c 9a e6 1c 2e 72 ee 8d 32 6b a9 d4 b6
       4.7779593e-12 3.567511e-11 1.6522993e-08 -6.337815e-06
0001c0 5b e4 b0 38 f1 11 e9 b9 04 7e 4b 37 2f c1 4b 38
       8.4348685e-05 -0.0004445459 1.2129083e-05 4.8578888e-05
0001d0 41 d5 77 39 7a e9 60 38 12 f0 5b 38 a3 08 b5 38
       0.00023635199 5.3623204e-05 5.243725e-05 8.632361e-05
0001e0 a0 dc e9 37 77 d1 49 b5 37 a4 89 39 2f b9 c2 b7
       2.7878501e-05 -7.5183146e-07 0.00026253026 -2.3212835e-05
0001f0 68 56 ac 38 b9 b6 f7 37 b5 bd 12 38 fd 94 e4 38
       8.2176935e-05 2.9529781e-05 3.498579e-05 0.000108996384

exp_avg_sq f4 [8, 16]
000000 d6 c5 c3 31 12 69 1f 36 d8 fa 95 33 6a 94 7f 34
       5.6977383e-09 2.3754005e-06 6.9839814e-08 2.3802718e-07
000010 94 ba 0d 34 7c 3c 78 34 61 71 e3 30 f2 5d 9e 2f
       1.3199525e-07 2.3118804e-07 1.6548648e-09 2.8806785e-10
000020 0e 67 be 36 7d ec 83 37 1b 3c 1f 34 5f b7 09 33
       5.6744384e-06 1.572654e-05 1.4829895e-07 3.2064573e-08
000030 9b 84 cb 33 86 cc a2 32 c6 f8 47 35 e0 63 02 34
       9.477045e-08 1.8952289e-08 7.449529e-07 1.2143528e-07
000040 89 70 09 33 7e 49 81 35 f0 2d 64 34 9e a5 a4 35
       3.200015e-08 9.632638e-07 2.1250867e-07 1.2267153e-06
000050 b5 7d aa 35 52 59 df 35 43 0b 78 34 54 bf dc 31
       1.2702573e-06 1.664079e-06 2.3100897e-07 6.424594e-09
000060 cc d0 d4 34 13 84 0e 35 77 52 ad 35 d7 03 6b 33
       3.9639997e-07 5.3091316e-07 1.2913505e-06 5.4718694e-08
000070 f1 f3 78 35 f8 45 92 32 7d 05 39 33 e9 c2 64 35
       9.274218e-07 1.7028455e-08 4.307866e-08 8.522025e-07
000080 16 50 33 32 13 9c e8 30 11 59 2d 32 f8 b9 32 32
       1.0437381e-08 1.6924581e-09 1.0090177e-08 1.0403248e-08
000090 60 5c b5 33 3b af b4 33 c3 36 d1 32 6c 39 02 2e
       8.445272e-08 8.4137774e-08 2.4355705e-08 2.960958e-11
0000a0 81 86 12 32 75 06 a0 33 83 fd b6 34 20 31 c7 31
       8.528901e-09 7.451755e-08 3.4084596e-07 5.797247e-09
0000b0 f6 17 a9 34 7b a6 19 32 ce d1 ef 30 63 e3 e3 34
       3.1496137e-07 8.943625e-09 1.7449169e-09 4.244749e-07
0000c0 6c d1 43 33 2e e1 db 33 34 5f bf 33 b5 be a3 34
       4.5592444e-08 1.0238942e-07 8.911448e-08 3.0499874e-07
0000d0 1a 5a 94 34 8e 53 ae 34 45 ea 4c 33 8a 4d d6 30
       2.7632706e-07 3.247082e-07 4.7710518e-08 1.5592587e-09
0000e0 67 86 1b 35 87 79 bb 33 0d a8 63 34 0a 7d 5f 32
       5.793758e-07 8.729972e-08 2.1202159e-07 1.3008739e-08
0000f0 51 98 ee 33 52 1e 22 31 fe fa b5 33 62 fa 2a 32
       1.1110445e-07 2.3591338e-09 8.4741245e-08 9.952233e-09
000100 9c ee 27 33 71 6a 74 33 58 97 33 34 91 ea 6f 34
       3.909973e-08 5.6907485e-08 1.6725733e-07 2.2343944e-07
000110 16 b2 50 34 ac 8d 6b 34 ca 8a 37 33 00 46 48 30
       1.9436297e-07 2.193762e-07 4.2734236e-08 7.285905e-10
000120 60 51 82 34 d8 20 80 33 c5 22 91 34 b4 61 44 33
       2.4273595e-07 5.966439e-08 2.7033653e-07 4.5723667e-08
000130 2d 26 3f 34 ca 98 58 32 13 9b 4d 33 31 0a 02 34
       1.780215e-07 1.2607595e-08 4.787132e-08 1.2110901e-07
000140 06 59 78 33 78 cd 19 34 06 f9 77 35 52 5b 7a 35
       5.7822966e-08 1.4323984e-07 9.237705e-07 9.3265146e-07
000150 23 5e 86 35 46 b6 69 35 51 f9 56 34 80 c6 88 2f
       1.0011175e-06 8.7064507e-07 2.0021004e-07 2.48793e-10
000160 5b 86 9d 33 e1 f9 ee 35 1f d7 c3 35 61 ef 91 34
       7.335321e-08 1.7805106e-06 1.4591241e-06 2.7182526e-07
000170 0b 67 89 35 c6 21 ce 32 43 34 2b 33 48 25 e3 34
       1.0237285e-06 2.3996915e-08 3.9861572e-08 4.230917e-07
000180 b6 36 05 2e 0e 42 d6 28 8b 43 14 2e ae 20 ae 2e
       3.0289292e-11 2.378742e-14 3.3711294e-11 7.918409e-11
000190 56 ad c6 2d 2c 78 70 2d 06 3c a8 29 19 2b 69 2d
       2.258697e-11 1.3669104e-11 7.471111e-14 1.3254086e-11
0001a0 36 cc 3d 2f ae fd 98 2c 34 a1 3e 2c e7 91 3b 2b
       1.7262e-10 4.348264e-12 2.709011e-12 6.6638226e-13
0001b0 8c 5e 2c 2a 9f 32 ee 2c e7 5a 10 2e 53 94 1f 2d
       1.5309471e-13 6.769987e-12 3.2822547e-11 9.071038e-12
0001c0 d0 2c ac 34 7e 4d 69 35 b1 05 17 36 a5 5b 8b 36
       3.2070102e-07 8.691203e-07 2.2504066e-06 4.1531916e-06
0001d0 7c 05 3b 36 25 84 6b 36 38 90 c0 34 cd cf 1f 31
       2.7868364e-06 3.5094647e-06 3.586772e-07 2.3255666e-09
0001e0 ae 47 5c 35 1a 25 c6 35 09 be 82 36 5a e6 88 35
       8.2060694e-07 1.4762948e-06 3.896425e-06 1.0199831e-06
0001f0 35 da 0d 36 40 7d 42 35 36 13 c0 33 fe cf 30 36
       2.113765e-06 7.2452895e-07 8.944191e-08 2.634711e-06

exp_avg f4 [8]
000000 d3 b6 ac 3a 9a 35 5f ba b4 84 ce 35 1c 03 4a 38
       0.0013177044 -0.0008514762 1.5386818e-06 4.816345e-05
000010 f5 e9 d6 37 a7 6c c0 39 78 d8 18 b7 74 d9 9a 35
       2.5619733e-05 0.00036702046 -9.110307e-06 1.1537181e-06

exp_avg_sq f4 [8]
000000 b5 99 4a 36 00 ae 8c 35 2e 42 0f 34 57 0d f2 34
       3.0189815e-06 1.0481454e-06 1.3341989e-07 4.508572e-07
000010 ae ae c9 34 4d 2c 73 35 f3 cf a5 2f c1 ec 1c 37
       3.7566264e-07 9.058902e-07 3.0161082e-10 9.353448e-06

exp_avg f4 [2, 8]
000000 ff 95 84 bb dd 50 a8 b9 c8 b7 58 b4 2a a6 b2 38
       -0.0040462012 -0.00032103705 -2.0183427e-07 8.518652e-05
000010 30 73 61 38 1f 6e 87 b9 13 24 90 b6 35 c9 ee 38
       5.3751457e-05 -0.00025831253 -4.295734e-06 0.00011386202
000020 f8 07 4c 3c ed ad cc ba 09 b3 93 34 57 b0 66 38
       0.012453072 -0.0015615799 2.751115e-07 5.5000502e-05
000030 e0 18 47 39 45 16 4f 39 ff 8f 8d 35 b0 74 2a 3a
       0.00018987386 0.00019749354 1.0547227e-06 0.0006502373

exp_avg_sq f4 [2, 8]
000000 aa 11 0c 37 32 f1 f8 36 7d 80 12 36 1e e2 a1 36
       8.348763e-06 7.419055e-06 2.1830485e-06 4.8244974e-06
000010 32 4f 9c 36 1e 76 8d 36 41 10 85 2c 72 6b 8a 37
       4.658382e-06 4.215878e-06 3.781892e-12 1.6500915e-05
000020 ae 56 07 38 ec 7a 4f 37 a2 82 30 36 8a d9 b5 36
       3.2267235e-05 1.2366781e-05 2.6302082e-06 5.4195452e-06
000030 4c b6 8a 36 61 d8 88 35 81 94 4e 2e 83 46 bd 37
       4.1339426e-06 1.0195764e-06 4.6970875e-11 2.256339e-05

exp_avg f4 [2]
000000 f6 53 25 bb 6d 89 19 bc
       -0.0025227047 -0.009371144

exp_avg_sq f4 [2]
000000 98 77 58 38 bf f1 27 39
       5.1609793e-05 0.00016016419

fc1.weight f4 [32, 20]
000000 0b 6e c7 3d 3d ea 01 be eb 9c a7 3d af d0 54 be
       0.09737786 -0.12687011 0.081842266 -0.20782731
000010 05 30 c9 3e 0e b1 b2 3d 4d c7 63 be 2e 24 ab 3e
       0.39294448 0.08725177 -0.22243996 0.3342604
000020 5d e3 b3 bc 20 fb 4c be b5 5f d9 bc 79 86 cf be
       -0.021959001 -0.20017672 -0.026534894 -0.40532282
000030 8e 65 25 be 50 ff 51 be 3b 89 b7 3e 7e 18 b5 bd
       -0.16152021 -0.2050755 0.35846886 -0.08842562
000040 ad 1a 7a bd 3e 60 88 3d 6d 7c 62 3d ef f0 34 be
       -0.061060596 0.06658982 0.055294443 -0.17670034
000050 c7 10 a6 3d df 3a 61 3e 4e 88 88 bf bb 19 af 3e
       0.08108669 0.21995114 -1.0666597 0.34199318
000060 2f 54 2c be 25 a1 4b 3d 9c 5a 9d bd 32 75 c8 3e
       -0.16828988 0.049714226 -0.07683298 0.39151913
000070 7f ef 59 3d c7 8f 7f 3e bd 8e 13 be e2 7c 62 bc
       0.053206917 0.2495719 -0.14409919 -0.01382372
000080 72 09 18 bd 59 8c 55 be d2 c0 2e 3b 11 1e 31 3d
       -0.037118383 -0.2085432 0.0026665223 0.043241564
000090 18 4a 70 3a f2 63 13 bd b9 8f e5 3b 64 34 52 3c
       0.0009166314 -0.035983987 0.0070056585 0.012829874
0000a0 d7 03 64 3e e2 ad c4 be ca 67 4b 3f e0 2e c2 be
       0.2226709 -0.38413912 0.79455245 -0.37926388
0000b0 a7 54 d0 3e be 86 33 3e b6 01 2e be 53 54 bb 3d
       0.40689585 0.17531869 -0.1699284 0.09146943
0000c0 fa 0e 75 be 73 fe f9 bc 32 d2 16 3e a8 b9 58 3e
       -0.23931494 -0.030516839 0.1472862 0.21164572
0000d0 07 74 16 be 04 de 18 3e 1c d2 4c 3d e6 c3 1d be
       -0.14692698 0.14928442 0.050005063 -0.1540676
0000e0 ca ac 21 3d 9c 66 03 bc 26 79 39 3e 5a 10 6d bc
       0.039471425 -0.008020069 0.1811262 -0.014469231
0000f0 57 9e f7 3d 4f b0 96 bd 20 35 a5 be 2b 08 40 bf
       0.12090748 -0.07357847 -0.32267094 -0.75012463
000100 1f ed 38 3c 5d 54 26 be f9 72 c6 3d 99 d4 d3 bd
       0.011287003 -0.1624312 0.09689898 -0.10343284
000110 6b c0 3d 3e d0 f8 2c 3e bb f4 e5 bb d9 a9 07 3e
       0.18530433 0.1689179 -0.0070176995 0.13248385
000120 9e 04 87 be 72 e7 89 bd 8d 69 1a be 41 05 fd bd
       -0.2637071 -0.06733598 -0.15079327 -0.12354518
000130 6b 85 25 bd 84 f9 de 3b cb 9e 98 3d c2 22 20 3e
       -0.04041044 0.006804647 0.07452162 0.15638259
000140 e4 e3 a8 3e b5 17 98 3d 12 59 c5 bd e0 7a 49 be
       0.32986367 0.07426397 -0.096361294 -0.1967578
000150 ad f5 0c 3e 69 a0 93 be 49 b7 00 3e bf 0c fc be
       0.13765593 -0.2883332 0.12569918 -0.49228474
000160 de b5 12 3d 8d 90 00 be 20 48 b4 3e 27 d8 45 be
       0.035817973 -0.12555142 0.35211277 -0.19320737
000170 8e 66 d3 bd bd 76 8a 3e c1 6e 17 3e 00 35 5c bc
       -0.10322295 0.27043715 0.14788343 -0.013440371
000180 10 13 bc 3d 63 6f 69 be 86 8b 48 3e ee 3f 5f be
       0.091833234 -0.22796397 0.19584474 -0.21801731
000190 b2 31 88 3e 48 31 4a be 5b 93 5b bd cf e3 15 bf
       0.26600415 -0.19745362 -0.053607326 -0.58550733
0001a0 1e 3f f2 bd 74 f5 dc bd d4 9b aa be 69 27 38 be
       -0.11828445 -0.10789004 -0.33322012 -0.17983784
0001b0 24 84 66 be 02 7b 79 bd b4 50 33 3d 95 07 47 be
       -0.22511345 -0.060908325 0.043778136 -0.19436486
0001c0 b1 a5 8e 3c 44 c8 3e be c9 5a 27 3e 7d 3d 5f be
       0.017412992 -0.18631083 0.16343226 -0.218008
0001d0 05 b2 29 be 00 d0 f8 3d d0 43 a8 bd 3b be 2b 3e
       -0.16571815 0.12149048 -0.08216059 0.16771786
0001e0 c4 8a e6 3d a5 85 b1 3c 12 1b 65 bf 8e 8e 6f bf
       0.11256936 0.021670172 -0.8949443 -0.93576896
0001f0 5d 66 9f bd f2 8c 2f bd d7 16 44 3e 08 2c 30 be
       -0.07783196 -0.042859025 0.19149338 -0.17204297
000200 33 2b bc 3e f6 21 e7 bd ae 26 58 bd ba 2c 08 be
       0.36751708 -0.112857744 -0.052771263 -0.13298312
000210 f4 09 b8 3c 54 77 87 bd 87 32 e9 bc a6 da 1c be
       0.022465684 -0.06614557 -0.028466476 -0.15317783
000220 e9 ab 96 3e e4 19 68 3c 20 d8 b3 3c 06 55 4f bd
       0.29428032 0.014166329 0.021953642 -0.050618194
000230 36 2e 84 3d 11 7e dd be a1 2e 88 3f 84 8f 13 bf
       0.064541265 -0.43260244 1.063923 -0.5764086
000240 10 30 00 3e 2a 3a ad 3d f7 ef a8 3d db d6 4f be
       0.12518334 0.084583595 0.08248895 -0.20296805
000250 71 45 60 bd 74 1c a7 bd 99 90 8b 3d 6d 02 45 3e
       -0.054753724 -0.08159724 0.06814689 0.19239207
000260 1e 12 3f be 2d 55 8b 3e 1a b5 a0 bb ed 65 b1 3d
       -0.18659255 0.2721342 -0.0049044015 0.08662019
000270 d2 9d 2f 3d a9 6e 9e bd 28 dc 9b 3d e5 4a cf bd
       0.04287512 -0.077359505 0.07610351 -0.10121707
000280 dc dd 6e bd 88 e1 8a 3e 44 47 1e bf c9 55 81 3e
       -0.05831705 0.27125192 -0.6182749 0.2526076
000290 26 50 18 be 32 70 f7 bc bc 89 f7 3c 29 4c 8d 3e
       -0.14874324 -0.030204866 0.030217044 0.27597168
0002a0 9d 8b b6 3d 68 d4 8d 3b 6e fd 73 bd 59 c1 1b be
       0.08913348 0.0043282993 -0.05956786 -0.15210475
0002b0 a4 36 bc 3d 29 78 be bd fa 2d d6 3c 96 5e ed 3c
       0.09190109 -0.093002625 0.02614497 0.028975766
0002c0 ec 85 9d 3e 14 bf ab 3d 33 8a 0a 3d 03 d1 02 be
       0.30766237 0.08386055 0.033823203 -0.12775044
0002d0 45 1e 08 be 20 52 d0 bd 2f 15 d1 be 70 30 09 be
       -0.13292797 -0.10171914 -0.40836474 -0.13397384
0002e0 f3 f0 19 3e 0a a8 3e bc d6 0d 69 bd 7f 4c 31 3e
       0.15033321 -0.011636743 -0.05689796 0.17314337
0002f0 4c 97 a2 3c 78 cf 03 3e cc 57 d2 bd 0d b6 a5 be
       0.019847535 0.12872112 -0.10270652 -0.32365456
000300 4c 29 87 be 84 c8 8e 3e cb 27 40 3e 13 c2 5e 3e
       -0.26398695 0.27887356 0.1876518 0.21753721
000310 7f 1e b7 3d 0b 0e 7d 3d 34 43 07 bd fd 47 36 3e
       0.089413635 0.06178097 -0.033023074 0.17800899
000320 c7 90 b0 3c 08 a5 d8 3d aa f3 0e 3f 3a b8 e8 bd
       0.02155341 0.10578352 0.5584055 -0.113632634
000330 59 1a 8e be 4a 6e 6b 3d fe 03 5f 3d 4a b8 c4 3e
       -0.27754477 0.057478227 0.054447167 0.3842185
000340 6a 14 1c 3f 60 cd 0e 3f 3a 76 96 3d 93 28 4a be
       0.6096865 0.5578213 0.07346769 -0.1974204
000350 5c 5c c6 bb 4b dd 3b 3e b2 02 c8 be 4e 33 e6 bb
       -0.0060534906 0.18346135 -0.39064556 -0.007025159
000360 3a 8d d3 3e 88 0b e4 3e 9f 2d 20 be 63 01 4a 3d
       0.41318685 0.44540048 -0.15642403 0.04931773
000370 cd 10 33 3e 18 31 bc bc a1 dc 26 3f ad 6c 8c be
       0.17486878 -0.022972628 0.65180403 -0.27426663
000380 50 ed 9c 3e b7 bf a5 3c 50 36 6b 3c 8e 3e c8 bd
       0.30649805 0.020233018 0.014356211 -0.09777556
000390 83 fe 05 3e 02 40 13 3d ea 3c 99 3e 90 aa 81 3e
       0.1308537 0.035949714 0.29929286 0.2532544
0003a0 96 f5 2f bc 0c a4 56 3e 3d 00 1d bd 38 62 27 3e
       -0.010739705 0.20961016 -0.038330305 0.16346061
0003b0 1c 70 05 3e e6 24 28 bd de 5e e7 3c b6 a2 20 bd
       0.13031048 -0.041050814 0.028243478 -0.039217673
0003c0 c3 e2 13 bd da 38 19 3e 39 fc 3f bf 30 e2 90 3e
       -0.03610493 0.14963093 -0.74994236 0.28297567
0003d0 91 3e 1a be 8c 84 17 3c 15 55 3e be 0a dd 68 3e
       -0.1506293 0.00924791 -0.18587144 0.2274057
0003e0 68 27 65 3e 6d f5 a9 3e 6c c7 83 bc f3 1b 14 bd
       0.22378314 0.33195058 -0.016086303 -0.036159467
0003f0 73 08 90 bd 75 a0 4a 3e 72 f8 df bd b7 86 49 3d
       -0.070328616 0.19787772 -0.10936059 0.04920074

fc1.bias f4 [32]
000000 a4 89 a6 3e cc be 4d bf 5c f2 55 be 42 76 94 be
       0.32526886 -0.8036926 -0.20893234 -0.28996474
000010 c3 26 e8 bd 95 2d 7f 3c 9a 9a 61 bf 5e ec b4 3d
       -0.11335518 0.015574832 -0.8812653 0.08834146
000020 8a 0b 45 bf ac aa 4f 3d d4 5e 4f 3f 10 7a 4f 3e
       -0.7697073 0.050699875 0.8100407 0.20261407
000030 b9 13 9a be 19 d6 16 bf 1b c0 ee be 16 0b 6a bd
       -0.30093172 -0.5892044 -0.4663094 -0.05713948
000040 82 72 0b 3f 41 28 27 bf 7d 16 58 3f a5 43 31 bf
       0.544716 -0.652958 0.84409314 -0.6924384
000050 14 bd e1 be ef 7d ff be c2 e6 19 bb 01 cf 24 bf
       -0.44089568 -0.49900767 -0.002348349 -0.6437836
000060 7e 12 6e be 1f b6 df be 28 bb c5 be 8b 23 70 3d
       -0.23249242 -0.43693635 -0.3861935 0.058627646
000070 0d a5 8b be c3 86 8f be 6b 73 b0 bd cb 88 0a bf
       -0.2727436 -0.28032503 -0.08615764 -0.5411498

fc2.weight f4 [16, 32]
000000 14 f8 18 be a5 26 df 3e a6 30 94 bd 29 b0 17 3e
       -0.14938384 0.4358417 -0.072358415 0.14813294
000010 ec 54 02 3e 19 af 81 3e d7 61 19 3f fc 1b 66 3e
       0.12727708 0.253289 0.59914917 0.22471613
000020 7f 65 68 3e fb f8 04 be 44 ca 74 be 48 0d 98 3e
       0.22694968 -0.12985604 -0.23905283 0.29697633
000030 17 3c 5f 3e 6c 0a c5 3e 00 ba e5 3e 02 08 21 3e
       0.21800266 0.38484514 0.4486847 0.15725711
000040 e5 69 8a 3d cb 80 d5 3e e1 60 6b 3e fa b6 c6 3e
       0.06758479 0.41699824 0.22986175 0.38811475
000050 35 7c 58 3e 19 80 64 3e af 4e ca bc 6e ea 03 3f
       0.21141131 0.2231449 -0.024695722 0.51529586
000060 93 f8 01 3e 87 e1 ab 3e af 30 7d 3e 7d 9b 98 3c
       0.1269248 0.335705 0.24725603 0.01862883
000070 ac c9 a5 3e c9 c2 3b 3e 45 63 11 be 75 4b 83 3e
       0.32380426 0.18336023 -0.14198025 0.25643507
000080 3b 0e 74 be d4 23 14 3f 2b e1 3c 3e 59 c8 67 3e
       -0.23833553 0.5786717 0.1844527 0.2263502
000090 d3 1b 5f be ac 4b b6 3d b3 36 2a 3f 6d 8c c3 3e
       -0.21787958 0.08901152 0.66489714 0.38193074
0000a0 8d 84 ef 3e 5e 03 b1 3d a0 8d 14 be f8 eb 4c 3e
       0.46780816 0.0864322 -0.1450715 0.2001189
0000b0 8b fe 96 3d 1d 1f e0 3e 5d ba 30 3e 8e f4 19 3e
       0.07372769 0.43773738 0.17258592 0.15034696
0000c0 fd 7b 25 be a9 43 01 3f 8f 45 e3 bd 9c 8f 50 3e
       -0.16160579 0.50493866 -0.110972516 0.20367283
0000d0 dd 31 9f 3e 33 f7 bb 3e fe f4 41 3e 54 ae 0d 3f
       0.3109273 0.36712036 0.18941113 0.5534413
0000e0 8b fd 0c 3e 5a 78 af 3e 8e 4f a8 3e 22 06 e4 3d
       0.13768594 0.34271508 0.32873195 0.11133982
0000f0 c5 20 a6 3d 6d 87 62 3e 4e 4f 27 be d7 62 c2 3e
       0.08111719 0.22121973 -0.16338846 0.37966034
000100 d5 a4 4f 3d b9 7c a4 3d c0 f0 73 be 8d 6f 8b 3d
       0.050694305 0.080316015 -0.23822308 0.06808386
000110 a2 c5 39 be dc 16 c7 bd 0b 44 a1 3d f7 d1 97 3b
       -0.18141797 -0.09721157 0.07874306 0.004633184
000120 1d 06 f2 bd ca ae 27 3d 23 43 62 be b8 e9 48 3d
       -0.11817572 0.040938176 -0.22095923 0.049051017
000130 e9 da aa 3d e4 d9 ae bd 7a ca a4 bd b3 bd e9 bd
       0.08342535 -0.08537653 -0.08046432 -0.114131354
000140 4d aa 39 be f8 71 17 be a2 33 da bd b2 c9 5d be
       -0.18131371 -0.1478957 -0.106543794 -0.21658972
000150 70 44 5a be 51 0c 60 bd 15 e2 4e be c1 14 32 be
       -0.2131517 -0.054699246 -0.20203431 -0.1739073
000160 1a 7c 84 bd 33 17 23 be 53 93 be 3d aa aa 05 be
       -0.06468983 -0.15926819 0.093054436 -0.13053384
000170 a1 fe 37 be 40 1f df bd 60 68 5b be 0a c8 94 3c
       -0.17968227 -0.10894632 -0.21426535 0.018161792
000180 7f 5a a2 3d 6d 78 31 be f2 92 10 be 11 09 ba 3d
       0.07927417 -0.17331095 -0.14118555 0.090837605
000190 59 65 4a be e4 5f b5 bc a0 22 62 be ba 42 65 be
       -0.19765224 -0.02214045 -0.22083521 -0.22388735
0001a0 4a 4b 90 bc 77 3a 31 be bc 71 bd bb 2e 8b 01 be
       -0.017614026 -0.17307459 -0.0057813805 -0.12650749
0001b0 ab a8 a7 bd bf 8d 1c be d9 da 75 3d 65 54 b8 3d
       -0.08186468 -0.15288447 0.060023163 0.09000472
0001c0 bb 66 4e bd b2 0d 32 be b9 13 71 be 6f b9 b3 3d
       -0.05039094 -0.17388037 -0.2354268 0.08775603
0001d0 2a 8c 8e bb 74 15 64 3b ea ea 09 bd 46 cc e9 3c
       -0.004350205 0.0034802826 -0.033671297 0.028539788
0001e0 7b 5c 51 bc 3b 50 b1 3b 0b e2 04 3d 9f e8 42 bd
       -0.012778397 0.0054111755 0.032442134 -0.047585126
0001f0 79 7a c6 3d fd db 0e 3d 59 15 b1 bd 19 38 20 be
       0.096913286 0.034877766 -0.0864665 -0.156464
000200 fd ea 4c bd 6a dd 94 3d 40 12 48 3d 5e 0c 08 be
       -0.05002879 0.07268794 0.04884553 -0.13285968
000210 c0 be c6 bd 08 9a 1c 3c bc 77 a0 3b d6 45 cc 3d
       -0.097043514 0.009558208 0.004897086 0.09974258
000220 09 70 41 3c 13 22 b1 bb a3 f4 78 bd 1e 1f 42 be
       0.011806496 -0.0054056733 -0.06078018 -0.18957183
000230 9b 4e fb bd 16 2e 35 bd ed b0 53 bd eb d0 5d be
       -0.12270852 -0.044233404 -0.0516824 -0.21661727
000240 1c 19 a9 3c 78 8c 6f bb c4 83 f1 bd 44 20 4e bd
       0.020641856 -0.0036552232 -0.117927104 -0.05032374
000250 dc 98 29 3d 26 ff 16 3d 86 94 ca 3d 0a e0 04 be
       0.041405544 0.036864422 0.0989161 -0.12976089
000260 8e 30 66 3c c6 4d 51 be eb d5 a0 bd ff b1 2e be
       0.014049662 -0.20439824 -0.078533016 -0.17060088
000270 30 b1 2f bd 7f 0a 19 3d e2 c1 c7 3c c5 06 1e be
       -0.04289359 0.037363525 0.024384443 -0.1543227
000280 0e 83 2c bd c6 0f 4b bc 85 de 1a bd 30 8e 82 bd
       -0.04211717 -0.012393897 -0.037809867 -0.06374776
000290 8d 84 8e 3b 3a 98 5a 3c c6 36 4a 3d 07 2e a0 bd
       0.0043492974 0.013341958 0.049368642 -0.07821279
0002a0 c2 79 32 bc f7 f9 b1 bc 7b ae d0 bc cf ff 21 bd
       -0.010893287 -0.021725638 -0.025473824 -0.0395506
0002b0 ec bb a4 bc 30 a4 0a bd bf f1 2a bc 75 69 ab bd
       -0.02010914 -0.033847988 -0.010433613 -0.08369724
0002c0 5d 88 c8 bc 08 70 e6 bd 58 24 59 bd 65 28 db bd
       -0.024479086 -0.11251837 -0.053013176 -0.10701064
0002d0 7b 8f 3b 3d 06 94 27 bd c9 dc d2 bd 3c 61 81 bd
       0.04579113 -0.04091265 -0.10296018 -0.06317374
0002e0 b9 d3 69 3d e4 24 41 bd cb cf d5 bc dd 6c a7 bd
       0.05708668 -0.047154322 -0.02610006 -0.08175061
0002f0 94 bf 53 bd 48 9e ed 3c 85 33 78 3d f3 c0 15 bd
       -0.051696375 0.029006138 0.060596008 -0.036560964
000300 79 4e 1d be b2 04 18 3f d8 fd f1 3d cc d4 42 3e
       -0.15361966 0.59382164 0.11815995 0.19026488
000310 40 5f 34 be db d4 97 bd 4f 81 77 3f a3 bc 7a 3e
       -0.1761446 -0.07413646 0.96681684 0.24486022
000320 21 0b 06 3f 41 b7 f5 3d 5a b0 15 bf 9b 78 8f 3d
       0.5236073 0.119978435 -0.58472216 0.070054255
000330 f9 a5 0b 3e 02 ca b1 3e 32 c6 ed 3e d0 ad 4e 3e
       0.13637532 0.34724432 0.46440274 0.20183492
000340 7f 4e aa be e3 e3 a5 3e 66 7b 89 be 1e d1 30 3e
       -0.33263013 0.32400426 -0.26851958 0.17267272
000350 de 91 e4 3e 13 d6 25 3e bf 53 1e 3d b6 f8 e2 3e
       0.44642538 0.16194944 0.038654085 0.44330376
000360 11 bc d3 bc d9 d1 79 3e 96 bb d4 3e e8 5e 04 3e
       -0.025846513 0.24396457 0.41549367 0.12926829
000370 d5 38 93 3e 56 75 48 3e aa 5a f0 bd 3b 9b bb 3e
       0.28754297 0.1957601 -0.11736043 0.3664187
000380 b0 fa 98 be 0d d4 c7 3e 1f b7 f9 3d e5 99 79 3d
       -0.2987876 0.3902897 0.12193131 0.06093778
000390 51 87 39 be 13 5f 15 3e d6 51 1b 3f fd 35 24 3e
       -0.18118025 0.14587049 0.60671747 0.1603622
0003a0 6a 54 d8 3e 2b 7a 87 be 41 12 6a bf ad 88 a6 bc
       0.42251903 -0.26460394 -0.91434103 -0.020328844
0003b0 10 43 4a 3c 89 3e 5b 3e eb 92 90 3e 34 b0 cb 3d
       0.0123450905 0.21410574 0.2823709 0.099457175
0003c0 5f 2e 2b bf f0 eb d7 3e 54 d0 9a be 1f 62 9e 3e
       -0.6686763 0.42172194 -0.30237067 0.30934235
0003d0 a4 01 48 3e 38 a1 ea bd b8 35 75 ba b2 75 db 3e
       0.19531876 -0.11456531 -0.0009354013 0.42863232
0003e0 b1 eb f1 bd c9 ea 58 3d b9 b0 4f 3e 37 3c 0e 3e
       -0.11812533 0.052958284 0.20282258 0.13890158
0003f0 1b 9b d5 3d 59 13 60 be 98 a4 d1 be 59 86 8a 3e
       0.10429975 -0.2188238 -0.40945888 0.27055624

fc2.bias f4 [16]
000000 c8 2e 2d 3e cb ce 2c 3d 36 4e 29 3d 5a dd 79 bd
       0.16912377 0.0421894 0.041334353 -0.061002113
000010 e9 72 5f bd eb 21 ce bd 1e a2 8e be 95 38 84 be
       -0.054552946 -0.10065063 -0.2785806 -0.2582442
000020 c0 1d b5 be 70 22 6f be 9d 31 9e 3c 3e 0b 4c 3e
       -0.3537426 -0.2335298 0.019310767 0.19926164
000030 c6 e5 87 3d 93 0b 6d bd 2d c0 5b 3c 89 cc 2f be
       0.06635623 -0.057872366 0.0134125175 -0.17167868

fc3.weight f4 [1, 16]
000000 13 af a9 be ab 3c ac be 94 bc 06 3e cf 6e aa bd
       -0.33141384 -0.33640036 0.13157874 -0.08321916
000010 93 91 2f 3e 13 d9 84 bd 0c 60 e2 be ed 31 aa be
       0.17145376 -0.06486716 -0.44213903 -0.33241215
000020 79 a5 23 bf c1 fc f9 3d 7f c7 d4 3d 25 43 a0 be
       -0.63924366 0.12206412 0.10389613 -0.31301227
000030 d4 b6 17 3e be 3c 2c 3e 73 45 f9 be 51 a2 83 be
       0.14815837 0.16820046 -0.48685798 -0.25709775
