model_dir/episode-0.pt (torch, 30265 bytes, 33 tensors)

fc1.weight f4 [16, 14]
000000 d2 03 0d 3e bd 96 f1 bd 77 38 54 bd 6d 74 00 3e
       0.13770989 -0.11796329 -0.05181166 0.12544413
000010 f9 d2 80 be c0 20 24 3e 3a 35 61 bd 12 3b 0b 3e
       -0.2516096 0.16028118 -0.0549824 0.13596752
000020 a3 2e 18 3d 34 0a 06 bd 54 d0 97 3d b1 03 58 3c
       0.03715385 -0.032724574 0.07412782 0.013184474
000030 73 e8 c7 3d a1 4d d5 bd 72 a0 9f bc 30 1b c5 bc
       0.09761133 -0.10415197 -0.019485686 -0.024060816
000040 a2 ab 1e 3d c4 f0 8b ba ef 3c 6f 3e 8a 54 aa 3d
       0.0387379 -0.0010676612 0.23363088 0.08316906
000050 41 d6 cb bd 18 4a 25 be 3c 7d 37 bd 43 18 ec bd
       -0.09952975 -0.16141546 -0.044797167 -0.11528065
000060 d8 65 af bd 13 aa 51 3c 44 25 23 3e af c0 14 3e
       -0.08564347 0.0127968965 0.15932184 0.14526628
000070 10 c4 85 be 35 a8 29 3e fc e8 98 3d 57 cc 81 3e
       -0.26126146 0.16568072 0.07466313 0.2535121
000080 67 a4 34 3e 28 5b 79 be 43 1b 82 be a3 00 04 be
       0.1764084 -0.2435118 -0.25411424 -0.12890868
000090 53 51 70 3e ea 57 36 bd 79 3e ea 3d 3b 5c fe bd
       0.23468523 -0.044517435 0.11437697 -0.12419935
0000a0 86 44 86 3e 57 95 e7 bd 6d 3c 4d 3e ca 68 4f 3b
       0.26224154 -0.11307781 0.20042582 0.0031648153
0000b0 52 2d 10 be 5c ac 0c 3e c0 45 11 be 7f fa a0 3d
       -0.14079788 0.13737625 -0.14186764 0.07860278
0000c0 32 0d 9e bd b4 08 f0 bc df 8d 83 be c5 7b 02 be
       -0.077173606 -0.029301025 -0.25694177 -0.12742527
0000d0 71 81 14 3e 71 0c 85 bd 14 4c 88 3e 08 60 5b 3e
       0.14502503 -0.06496514 0.26620543 0.21423352
0000e0 1a 08 4d bc 7c ac 36 be 75 a8 26 3e d0 df a9 3d
       -0.012514139 -0.17839235 0.16275199 0.08294642
0000f0 c5 e8 30 be b3 c3 31 3e 1e 26 26 3e af b8 72 3e
       -0.17276295 0.1735981 0.16225478 0.23703264
000100 54 69 19 be ca 31 34 bd c1 a6 a9 bb b1 e3 1f 3d
       -0.14981586 -0.043992795 -0.0051773493 0.039035503
000110 85 b2 4f be ce 34 42 be 77 e1 14 3e 72 59 80 bd
       -0.20282944 -0.18965456 0.14539133 -0.0626706
000120 e7 ae 05 3e b5 a2 79 3c 49 b8 b3 3d 6c b6 70 3d
       0.13055001 0.015236546 0.08775384 0.05876772
000130 3a 04 c7 3d f4 a9 07 3e 46 74 7d be 45 c1 09 3e
       0.09717603 0.13248426 -0.24751386 0.13452633
000140 77 6d 40 be 9a 7d 4e be b2 25 85 3c 8a 8b 3a bd
       -0.18791758 -0.201651 0.016253326 -0.04554323
000150 78 bc 20 3e c8 7e 1e be e7 4a 73 be 28 2c 47 3e
       0.15696895 -0.1547805 -0.23759042 0.19450438
000160 0c 53 22 bd 46 ee 19 3e 04 f7 af 3d f6 38 4d be
       -0.03962998 0.150323 0.08592036 -0.2004126
000170 7c ec 5b 3d cb 78 83 3d e7 3d 37 be f8 d9 01 be
       0.053692326 0.06419524 -0.17894708 -0.12680805
000180 24 a2 ba 3d f9 15 44 3d 00 d4 e8 bd 1d b1 a5 bd
       0.09112957 0.047872517 -0.11368561 -0.08090422
000190 98 a7 7a 3e 0d 8b 4a bd c4 4b 1a 3e 36 01 ed 3d
       0.24477994 -0.049449015 0.15067965 0.115724966
0001a0 e2 e7 30 be e2 bd 68 be 59 59 83 3e af a5 64 3c
       -0.17275956 -0.22728685 0.25654104 0.013955518
0001b0 d4 97 3b 3e 4d db 62 3d 60 0a b0 3d 9d 6c 4c 3e
       0.18319637 0.055384923 0.08595729 0.19963308
0001c0 66 c0 81 3e 1a 9b 35 be 95 de 08 3d 7b 3b 4c 3e
       0.253421 -0.17734948 0.033415396 0.19944565
0001d0 99 42 46 3e 8b 04 2a 3e 6b 10 46 be 2c 13 45 be
       0.19361342 0.16603296 -0.193422 -0.19245595
0001e0 dd 82 25 be 8e 86 09 3d a2 61 88 3e c8 df 2c be
       -0.16163202 0.033575587 0.26636988 -0.16882241
0001f0 22 d6 11 3e e5 79 17 be 31 a8 80 be e9 aa 68 bd
       0.14241841 -0.14792593 -0.2512832 -0.056803618
000200 12 af 1d 3e cf 12 7e 3e 8e f6 29 be 08 90 6d 3d
       0.15398815 0.24811862 -0.1659796 0.057998687
000210 ca 24 6c 3e 20 5a 35 3e 96 8f 2a 3e 94 7b 42 3e
       0.23060909 0.17710161 0.16656336 0.18992454
000220 b0 1a 2d 3e f8 60 8d 3d 13 25 3b be 43 d2 65 be
       0.16904712 0.06903261 -0.18275861 -0.2244349
000230 b9 ce fa bd 77 f2 fe bc 01 c0 27 be 19 40 c8 3d
       -0.122464605 -0.031121476 -0.16381837 0.09777851
000240 02 66 a9 3d 12 e1 77 bd 8b 5e d2 3d 3f e5 b0 3d
       0.082714096 -0.06051738 0.10271939 0.08637475
000250 ed 16 27 3e 17 4e 38 3e a6 5c b9 bd a9 b1 85 3e
       0.16317339 0.17998539 -0.090508744 0.26112106
000260 af 1c fd bc 36 70 16 bc 8f 28 81 be 59 24 30 be
       -0.030897466 -0.009182027 -0.25226256 -0.17201366
000270 d7 e1 1f be 55 1d ea bd 30 93 42 3e 2b dd b2 bd
       -0.15613495 -0.11431376 0.1900146 -0.08733591
000280 37 83 4c be df 97 d2 3d c1 3e af 3d cf 41 31 3e
       -0.1997193 0.10282873 0.08556891 0.1731026
000290 94 9e 0d be 0a 59 6d 3d 73 43 c7 bd ad f3 75 bd
       -0.13830024 0.057946242 -0.09729662 -0.06004684
0002a0 d8 18 5a be 13 76 f9 bd 67 a1 a7 bd 0e 11 ea 3d
       -0.2129854 -0.12180724 -0.08185082 0.11429034
0002b0 91 fd 47 3d 67 34 87 3d 17 94 88 3e a7 5d 85 3e
       0.048825804 0.06601792 0.26675484 0.26048014
0002c0 db a8 3a 3e d0 6f 0b 3c 8d 53 3d be 4b e1 55 3e
       0.18228476 0.008510545 -0.18488903 0.20886724
0002d0 5a df 88 bd ce 00 b1 bc 6b c5 6b be 26 3c 58 bd
       -0.06683226 -0.021606829 -0.23024528 -0.052791737
0002e0 72 84 30 be 68 7b 7b 3e 26 99 6c be 49 53 55 be
       -0.17238024 0.24558794 -0.23105296 -0.20832552
0002f0 26 b0 14 bc 07 fb 13 be 3d d9 c3 3d 7e b0 d2 bd
       -0.0090752 -0.14451228 0.09562919 -0.102875695
000300 c0 8a 00 be 60 01 78 3c f6 1c 46 3e 85 82 40 be
       -0.12552929 0.015137047 0.19346985 -0.18799789
000310 0d 85 00 3e 0b d2 2f 3e b4 da 85 3e cf 8d 3f be
       0.12550755 0.17169969 0.2614342 -0.1870644
000320 19 90 84 3d ef 5c 4a be 89 a6 69 3e 27 52 d4 bd
       0.06472797 -0.19762014 0.22817434 -0.10367232
000330 65 d9 24 3e 0b 5d 02 3c 3f 84 aa bc d7 b7 0b bc
       0.16098554 0.0079567535 -0.020815013 -0.008527718
000340 e2 17 3a 3d 73 02 01 3e 75 91 2f 3d dc f8 a6 3d
       0.045432933 0.1259859 0.042863328 0.08152935
000350 89 2d 76 be 03 62 47 3e 9a 9b 6e 3e c5 38 62 3e
       -0.24040808 0.19470982 0.23301545 0.22091968
000360 a0 4e 4a 3e 2b 7e 45 be 2c e7 ca bd 7f 4e 71 3e
       0.19756556 -0.1928641 -0.09907374 0.235651
000370 82 72 50 be c3 48 78 3e a5 3e 57 be 84 c7 40 be
       -0.20356181 0.24246506 -0.2101999 -0.18826109

fc1.bias f4 [16]
000000 3f cb 05 3e 03 a2 44 be 09 cc 7a bd c1 18 47 3e
       0.13065813 -0.19202428 -0.06122974 0.19443037
000010 7b c6 58 3e 43 6a 81 3e 58 22 5e bd 9d b7 54 be
       0.21169464 0.25276384 -0.05423197 -0.20773168
000020 61 bb 86 3e 3f 33 69 bd 0e 33 e1 bd 0a 6e 85 3d
       0.26314834 -0.056933638 -0.10996066 0.06515129
000030 53 63 3f be aa e1 33 3e 7a 85 2b 3e 08 28 59 be
       -0.18690233 0.17566553 0.16750136 -0.21206677

fc2.weight f4 [8, 16]
000000 76 45 52 be c0 65 b3 bc 94 0d d7 3d 00 42 ed bb
       -0.2053431 -0.021899104 0.10500637 -0.007240534
000010 d6 cf 01 be 00 4a bb 3b 66 9f 70 be 4a ee 34 be
       -0.1267694 0.0057156086 -0.23498306 -0.17669025
000020 9e 6a 2a be e2 d2 52 3e 5e aa 61 3e cc e8 ad bd
       -0.16642234 0.20588258 0.22037646 -0.08491668
000030 00 b5 37 3c 38 57 e4 3d d0 62 f5 3c 52 31 00 be
       0.011212587 0.11149448 0.029954344 -0.12518814
000040 20 a5 13 3e 38 5f 1d 3e c0 62 6d bc 30 1d fc bc
       0.14418459 0.15368354 -0.014488876 -0.030775636
000050 86 a3 68 3e e8 c6 5f 3e 7c 25 11 be 9c 77 7a 3e
       0.22718629 0.2185322 -0.14174455 0.2445969
000060 70 69 7d 3d 00 0d 2a be 3a 23 0c 3e 82 1f 3f be
       0.06186813 -0.16606522 0.13685313 -0.18664363
000070 96 86 6c 3e ba 93 24 be d4 ce 90 3d 74 e7 9b 3d
       0.23098215 -0.16071978 0.07070699 0.076125056
000080 08 91 73 3d 04 55 54 3e b0 a8 d4 bd b4 26 d8 bd
       0.059464484 0.20735556 -0.10383737 -0.10554257
000090 a0 d7 5d be 40 19 28 bc 80 8b f2 bd a0 1f 24 3c
       -0.21664286 -0.010259926 -0.11843014 0.010017306
0000a0 20 eb 51 bd dc e0 a9 3d a4 75 5d 3e 7c 14 97 3d
       -0.051249623 0.08294842 0.21626908 0.07376954
0000b0 90 ef a4 bd 88 3c fb bd 6c 45 5f be 10 69 57 3e
       -0.080535054 -0.12267405 -0.21803826 0.21036172
0000c0 98 fc 41 bd 18 b3 4e 3d 00 84 17 3c f0 23 23 be
       -0.047360033 0.050463766 0.00924778 -0.15931678
0000d0 a8 2c 10 3e 9a 77 0f 3e 40 46 4e 3c 62 7b 11 be
       0.14079535 0.14010468 0.012589991 -0.14207223
0000e0 5c 8d d9 bd 00 a0 61 3b 28 43 12 be 5a d6 0e be
       -0.10622665 0.0034427643 -0.1428343 -0.13948956
0000f0 40 bf 18 bd 3c 6e 93 bd 50 5f 7b 3d b0 93 86 bd
       -0.037291765 -0.0719876 0.061370194 -0.06571138
000100 a0 be 07 bd c4 6b c3 bd c4 f2 69 be b6 43 5f 3e
       -0.03314078 -0.09542039 -0.22846514 0.21803173
000110 70 5c 43 3d e6 eb 64 3e 68 07 25 bd 14 ac 80 bd
       0.047695577 0.22355613 -0.040290266 -0.06282821
000120 cc aa 70 be 54 5c c2 bd ac e0 27 3e f2 bc 7a be
       -0.23502654 -0.094902664 0.163943 -0.2448614
000130 74 14 b3 bd 6a f8 1b 3e 5e 8b 13 3e b8 0d bd 3d
       -0.087441355 0.15231481 0.14408633 0.09231132
000140 20 b2 4a bd d0 10 9b bc f0 76 42 bd 70 be bc bd
       -0.04948628 -0.018928915 -0.04747671 -0.092160106
000150 90 ab d5 3d 80 63 ae bd da d0 0f be 18 4e 68 3d
       0.104331136 -0.08515072 -0.14044514 0.0567151
000160 d0 09 39 be 68 89 5a bd ca d1 02 3e 78 59 bf 3d
       -0.1807015 -0.053353697 0.1277534 0.09343237
000170 4c f1 59 3e a2 9a 2e be 80 73 0e 3b ec 31 97 bd
       0.21283454 -0.17051175 0.0021736324 -0.07382569
000180 62 2f 0f be 82 03 10 be c4 fd 80 3d 70 45 d6 3c
       -0.13982919 -0.14063838 0.06298402 0.026156157
000190 c0 ac 02 be ac 71 34 be 6c 1a 54 be 84 e5 7a 3e
       -0.12761211 -0.17621487 -0.20713204 0.24501616
0001a0 40 89 2e bd f0 c8 6c bd 88 45 bc bd de 0a 00 be
       -0.04261136 -0.057808816 -0.091929495 -0.12504146
0001b0 78 1d 6a be 80 49 16 be 78 79 1c 3e a0 6f 60 3d
       -0.22862804 -0.14676476 0.15280712 0.054793954
0001c0 c8 9c b4 bd bc 7d c1 bd 4e 89 23 3e 46 89 38 3e
       -0.08818966 -0.0944781 0.15970346 0.18021116
0001d0 a2 a3 76 3e 70 5a 95 3d 58 5a f7 3d a0 8d a4 bc
       0.24085858 0.0729264 0.120777786 -0.020087063
0001e0 ae aa 15 be 6c cc 7a be 9a ed 1b 3e d0 d5 14 bd
       -0.1461589 -0.24492043 0.15227357 -0.03633672
0001f0 64 5a d2 3d c0 9c 49 3c 20 ee 6e be 40 2f fb bd
       0.10271147 0.0123054385 -0.23333025 -0.122648716

fc2.bias f4 [8]
000000 c8 0a 90 3d 10 42 4f bd a8 35 77 be a4 89 b3 3d
       0.07033306 -0.05060011 -0.24141562 0.08766487
000010 c0 16 1d 3c 00 8c a4 bd 58 d5 ce 3d b8 2f 58 3d
       0.009587944 -0.080345154 0.10099286 0.052779883

fc3.weight f4 [2, 8]
000000 5d 85 05 be 4f 9e a2 3e 9d a0 35 3e 8c d5 35 3d
       -0.13039155 0.31761405 0.1773705 0.044393107
000010 61 0f 8b bd a1 54 99 be cd c2 8b 3e 4f d7 ba bd
       -0.06790043 -0.2994738 0.2729706 -0.09123098
000020 6a f5 69 be 2d 1f 68 3e 13 94 00 3e bd 2f b3 3d
       -0.22847524 0.22668143 0.12556486 0.0874934
000030 05 92 8f bd 87 f6 e1 bd e8 bf 75 3d e6 14 8c 3e
       -0.07010273 -0.110333495 0.05999747 0.27359694

fc3.bias f4 [2]
000000 b5 61 4f 3d 72 30 2b be
       0.05063029 -0.16717699

fc1.weight f4 [32, 20]
000000 9d 75 63 3e d9 b4 9c 3b e9 01 35 3e ac 38 5f 3d
       0.22212835 0.004782301 0.1767651 0.054497406
000010 e3 3d 4d 3e 94 1c 04 3e 42 79 e9 bd f3 d7 20 3e
       0.20043139 0.12901527 -0.11400081 0.15707378
000020 c3 8b bc 3a 07 cd 37 be fa eb 3f bd 93 ac 4e be
       0.0014384914 -0.17949305 -0.046855904 -0.2018302
000030 60 43 ed bd 84 36 22 be 51 9b 1c 3e 18 6b 40 bd
       -0.115851164 -0.15841109 0.15293624 -0.046977133
000040 ca 3e 1e bd 82 74 db 3d f1 5e ba 3d 75 1d 17 be
       -0.0386341 0.107155815 0.0910014 -0.1475733
000050 ed c4 a8 3d cd 8b c2 3d 12 0f 36 be f2 13 47 3e
       0.082406856 0.09499321 -0.17779186 0.19441202
000060 70 53 0b be 98 14 b3 bd 21 9a 3c be d0 46 51 3e
       -0.13606048 -0.08744162 -0.1841817 0.20437169
000070 f4 66 2e 3d b5 cd 40 3e 00 3c 6f 3c ff e9 f8 3d
       0.042578653 0.18828471 0.014601707 0.12154006
000080 3c 37 92 bd 5b ab 36 be b3 06 13 3d 2b 5b a3 bc
       -0.07139441 -0.17838804 0.03589506 -0.019940933
000090 2e f4 b8 bc 89 e7 e0 bd 55 af 97 3b ce 83 83 3d
       -0.022577371 -0.10981662 0.0046290555 0.06421624
0000a0 0e 34 a5 3d e8 73 38 be 4a 3e dd 3d 34 5e bc 3c
       0.08066569 -0.18012965 0.10802896 0.022994138
0000b0 4e ed 1d 3e 94 d1 21 3e e4 51 34 be 42 e3 5b 3e
       0.15422556 0.15802604 -0.17609364 0.2147341
0000c0 1c 2f 61 be 03 a1 03 3e c3 ed 80 3c 54 b4 d8 3d
       -0.21990627 0.1285439 0.015738374 0.1058127
0000d0 66 a4 f7 bd 70 a8 09 3e 67 9b e2 bd 7e 63 4a be
       -0.120919034 0.1344316 -0.11064797 -0.19764516
0000e0 66 6d 99 3d 56 a9 fa 3d db f8 62 3e ea 71 bf bc
       0.07491569 0.122393295 0.22165243 -0.023369748
0000f0 7a 44 5c 3e e5 19 13 3e 07 20 e3 bd 09 9e 30 be
       0.21510497 0.14365347 -0.11090093 -0.17247786
000100 40 6c 00 3e e1 e5 fa bd cb 0e d2 3d eb 19 44 be
       0.12541294 -0.12250877 0.10256728 -0.19150512
000110 55 0d 27 3e 39 41 89 3d 5e 96 d2 bc f7 06 d2 3d
       0.1631368 0.06701893 -0.025706466 0.10255235
000120 4d 04 23 be 7e 38 48 bd 81 a9 0f 3b 93 4e 04 be
       -0.1591961 -0.048882 0.00219211 -0.12920599
000130 f2 07 6a bd e3 7d c5 bd 4b 38 5a 3e 63 85 42 3e
       -0.057136483 -0.096431516 0.21310537 0.18996195
000140 2b 7c 45 3e f3 25 3b 3e 14 4a 5b be 2b 2f 99 3d
       0.19285648 0.18276195 -0.21414977 0.074797
000150 42 cb a8 3d 73 f2 27 be de 9f b9 3d 53 7d f8 bd
       0.08241893 -0.16401081 0.09063695 -0.12133279
000160 73 a4 11 3d 75 af 97 3d 79 94 45 3e de 3e f0 bd
       0.03555722 0.07406513 0.19294919 -0.11730741
000170 86 26 34 be 08 dc 53 3e 37 3b c0 3d 71 95 de 3d
       -0.1759282 0.20689404 0.09386294 0.108683474
000180 38 d8 a4 3d 5d 18 a2 bd 14 bd 09 3e d0 e6 47 be
       0.08049053 -0.07914803 0.13451034 -0.19521642
000190 6b eb fe 3c 96 02 cf 3d e1 71 1c 3e 6b af e4 bd
       0.031118115 0.10107915 0.15277816 -0.11166271
0001a0 be c2 1a be e6 a6 ab 3d aa d7 35 be 94 4a 3e be
       -0.15113351 0.08381443 -0.1775805 -0.18583137
0001b0 81 eb 4d be 02 13 de bd df d2 2e bd b4 98 07 be
       -0.20109369 -0.10843469 -0.04268157 -0.13241845
0001c0 c1 a1 c1 bd c0 c0 4a be ac bc 0c 3e e5 ac 51 bd
       -0.0945468 -0.19800091 0.13743848 -0.051190276
0001d0 3e 78 10 be 1a 75 6e 3d 88 34 2b be 75 47 20 3e
       -0.14108369 0.058217146 -0.16719258 0.15652259
0001e0 ca a9 03 3e c8 03 61 be 53 bb 33 be ca fa 16 be
       0.12857738 -0.21974099 -0.17551927 -0.14744106
0001f0 9d e6 f7 bd 64 b8 e4 3c ff 6b 62 be d6 c0 29 be
       -0.12104533 0.027919956 -0.2211151 -0.16577467
000200 2e 23 d1 3d b8 fb 95 bd 2d 3a b6 bd e5 6c 3d be
       0.10211788 -0.07323402 -0.08897815 -0.18498571
000210 6e 9c b9 3d 8c 5a 81 3c 9e 02 b1 bd 37 38 0c be
       0.0906304 0.015790246 -0.08643077 -0.1369332
000220 04 c9 42 3d 01 35 79 3d c3 43 cb 3d b7 17 88 3d
       0.047554985 0.060841564 0.09925034 0.06645148
000230 1c b7 0b bd 11 40 31 be 30 c4 11 3e 78 3c fb ba
       -0.034110174 -0.17309596 0.14234996 -0.0019167801
000240 3b 2c 18 be dd 76 45 3e c3 53 ff 3d f8 f4 33 be
       -0.14860623 0.19283624 0.12467148 -0.17573917
000250 d7 b4 e4 bd 5e d7 9b bd b7 2e 04 be e9 da d5 3d
       -0.11167305 -0.076094374 -0.12908445 0.104421444
000260 29 59 23 be fd cc 54 3e fd 48 bd bd 48 28 07 3e
       -0.1595198 0.20781322 -0.09242437 0.1319896
000270 6d 86 f9 3b a0 66 c9 bd 8b e7 18 3e e1 b6 2e be
       0.0076149018 -0.09834027 0.14932077 -0.1706195
000280 95 4a f2 bd 09 8f db 3c 86 a3 35 3e b0 35 c4 bd
       -0.11830632 0.026801603 0.1773816 -0.095805526
000290 cf 6d 0b be 22 2e 12 be f1 e5 c9 bd d3 30 9e bd
       -0.13616107 -0.14275411 -0.09858311 -0.07724156
0002a0 bf 54 55 bd 7d 42 02 be 09 21 8f 3d 89 07 ee 3a
       -0.052082773 -0.12720676 0.06988723 0.0018160205
0002b0 9a 9a 15 be 32 c2 02 be 3c f1 41 3d 65 57 51 bb
       -0.14609757 -0.12769392 0.0473492 -0.003194296
0002c0 2d 0e 22 3e 89 d8 0a bd e1 7d 39 be ff 59 29 be
       0.1582572 -0.03389791 -0.18114425 -0.16538237
0002d0 37 6b 86 bd 70 d9 4a bd 60 0c d1 3c 68 68 4d bd
       -0.06563418 -0.04952377 0.025518596 -0.050148398
0002e0 ae f8 a8 3d 3f 4e 98 bd 50 0e 28 3e 86 5e 52 3d
       0.08250557 -0.07436799 0.1641171 0.051359676
0002f0 09 ca 8c bd ad 0f 4c 3e 73 d2 69 3d a6 9b 1b be
       -0.06874473 0.19927855 0.057085466 -0.15196094
000300 08 de fe bd da 91 0f 3e 63 27 d1 3d f3 c7 32 3e
       -0.12444693 0.14020482 0.102125905 0.17459087
000310 c5 b5 8c bc 10 26 20 3e 65 ae e3 3d 90 9f 8d 3d
       -0.017176518 0.1563952 0.111172475 0.069152
000320 d3 fa 53 bd 4a ba 5c 3e f7 57 39 3d 26 50 6c bd
       -0.051752876 0.21555439 0.045249905 -0.057693623
000330 60 59 50 bb 87 17 61 3e 48 ca 19 3e 2e bf 87 bc
       -0.0031791553 0.21981631 0.1501857 -0.016570654
000340 43 7a 60 3e c3 19 c9 3d 93 d1 f3 bd ad 61 50 be
       0.21921639 0.09819367 -0.119052075 -0.2034976
000350 b5 10 05 3e 1c bd 56 3e d4 67 05 be d5 16 bc 3d
       0.12994654 0.20970577 -0.13027889 0.09184042
000360 8f f6 1b 3c 83 d5 43 bd 7d 0a 79 bd 91 cd 7e 3d
       0.009519233 -0.047811043 -0.060801018 0.062207762
000370 18 ea 49 3d 8e a6 1a 3e 7a a4 a7 3d 59 64 d0 3d
       0.049295515 0.15102598 0.08185668 0.1017539
000380 8e fd 49 3e 0e 99 8e 3d 20 f5 07 3d dd b8 a6 bd
       0.1972563 0.069627866 0.033192754 -0.081407286
000390 38 ed 27 3e a8 42 07 3d c9 96 13 3e 7a 1b 5d 3e
       0.16399086 0.033022553 0.14412989 0.21592513
0003a0 9f d7 4c bd 68 38 21 3e 08 00 3a bd e2 a1 4e 3e
       -0.05001032 0.15744174 -0.045410186 0.20178941
0003b0 4f 39 34 3e f9 24 a4 bd d4 63 03 3c 2a fd c7 bd
       0.17599986 -0.080148645 0.008019406 -0.09765084
0003c0 1c 37 b9 bd 48 70 39 bd 2f d1 c7 ba 17 a3 9f bd
       -0.090437144 -0.045273095 -0.0015244837 -0.07794779
0003d0 85 26 58 be 47 7d 0a be 93 88 9c bc c3 30 92 bd
       -0.21108444 -0.13524352 -0.019108092 -0.07138207
0003e0 38 12 2a 3e 61 1f 3a 3e cf de 11 3e c3 ad ca 3d
       0.16608512 0.18176033 0.14245151 0.09896424
0003f0 8f 85 35 be 70 53 58 3e 0d c6 49 be 98 8d 96 bd
       -0.1772673 0.21125579 -0.19704457 -0.073512256

fc1.bias f4 [32]
000000 b4 26 d1 3d 78 f7 7f bd ef af 35 be 45 a0 36 3d
       0.1021246 -0.062491864 -0.17742895 0.04458644
000010 09 a3 17 be e2 f6 e2 3c 2a b2 32 be fc 9e 2c 3e
       -0.14808287 0.027705614 -0.17450777 0.16857523
000020 d6 fa 1b be fb c8 46 3e 5e bf 21 3e 3b 17 2d 3e
       -0.15232405 0.19412605 0.15795657 0.16903393
000030 d3 64 09 3e 11 fe 53 3d 98 8e 32 bc 59 ea 69 bb
       0.13417368 0.05175597 -0.010898255 -0.003569266
000040 a1 22 b6 bd b5 78 52 be 0e b4 50 3e 8f d1 3d 3c
       -0.08893324 -0.20553859 0.20381185 0.011585607
000050 91 61 d7 3d b3 76 06 3c df 99 83 3d d8 13 0d be
       0.10516656 0.008207011 0.06425833 -0.13777101
000060 fc fe 31 be f2 9f 2e 3e 27 a9 ad 3d fc 1d e2 3d
       -0.17382425 0.17053202 0.08479529 0.11040875
000070 d1 44 63 be d8 af 77 3c 64 93 55 be c9 9f d1 bc
       -0.2219422 0.015117608 -0.20857006 -0.025588887

fc2.weight f4 [16, 32]
000000 85 1c 19 bc 93 b3 fe bd fa 3f 33 be 12 80 98 3a
       -0.0093451785 -0.12436595 -0.17504874 0.0011634848
000010 62 ca 22 3e 9c 23 23 3e b9 6a dc bd 48 a0 00 bd
       0.15897515 0.15931553 -0.10762543 -0.031402856
000020 50 60 17 be 24 5e 0d be 3a 88 46 bd 85 be 2f 3e
       -0.14782834 -0.13805443 -0.04846976 0.17162521
000030 a2 e6 3c bd 32 93 27 3c ed 4b 2a 3e 2d 09 01 3d
       -0.046118386 0.010227965 0.16630526 0.03150289
000040 29 07 12 3e 4e 92 f0 3d 6a be 29 3e 1a 58 f8 3c
       0.14260544 0.117466554 0.16576543 0.030315448
000050 1b 63 12 be 6a b9 1b be ac 0e bb bd b5 68 15 3e
       -0.14295618 -0.15207449 -0.09133658 0.14590724
000060 17 2f d0 3d 99 eb 53 3d fb d9 09 be 53 52 05 be
       0.10165232 0.051738355 -0.13462059 -0.13019685
000070 3b af 13 3e ea 52 96 bc 54 3c 34 be 11 06 b3 bc
       0.14422314 -0.018350083 -0.17601138 -0.021853479
000080 25 d5 2d bd 86 c0 2e 3b 2d 84 97 3d c6 4e 8b 3d
       -0.0424396 0.0026665046 0.073982574 0.06802134
000090 1b 83 0a be d0 f4 fd ba 9b 6a b3 bd a9 e4 f4 3d
       -0.13526575 -0.0019375328 -0.08760568 0.11957676
0000a0 7a 46 b3 3d 65 b7 c6 3d 92 92 24 3e 94 d5 b1 3d
       0.08753677 0.097029485 0.16071537 0.08683315
0000b0 23 e4 34 be d6 b4 36 3d f9 6c f8 bd 49 63 c1 3c
       -0.17665152 0.044606052 -0.1213016 0.023606913
0000c0 05 aa f7 3a ef 89 33 3e 5d 5a f7 bd 11 5b 31 be
       0.0018895274 0.17533086 -0.12077782 -0.17319895
0000d0 2c 1c 42 bd ab 5c e9 3c ca 9a 04 3e 51 c5 12 3e
       -0.047390148 0.02848657 0.12949672 0.14333083
0000e0 4e 69 0b 3e 5e 92 64 3d 58 ed 4e bd de 19 19 bd
       0.1361439 0.05580365 -0.050519317 -0.037378184
0000f0 37 fd c5 bd ff 97 0d 3d c2 c6 fb bd 3c f1 78 3d
       -0.096674375 0.034568783 -0.122937694 0.060776934
000100 f4 ce e9 3d 69 9b 19 3e 84 6c 32 be 59 85 14 3e
       0.11416426 0.1500069 -0.17424208 0.14503993
000110 17 6e e3 bd be 7b 6c bc 74 3f 25 3e ca 30 c4 3d
       -0.11104982 -0.014433799 0.16137487 0.09579618
000120 eb ad 65 bd bd b8 d5 3d e8 10 30 be 73 84 0d 3e
       -0.056074064 0.10435627 -0.17193949 0.13820057
000130 01 b8 2f 3e bf 86 03 bc 09 56 ee 3c 88 e7 29 bd
       0.17160036 -0.008027731 0.02909376 -0.04148057
000140 8a 30 e5 bd 33 c1 a3 bd a5 57 40 bc 33 18 14 be
       -0.11190899 -0.07995834 -0.011739646 -0.14462356
000150 6a 4d 12 be 4e ee 9e 3c c1 91 eb bd f3 ed c4 bd
       -0.14287344 0.019400742 -0.1150241 -0.09615698
000160 5a 60 c8 ba a2 cb be bd 72 8f 27 3e 1e b2 82 bd
       -0.0015287504 -0.093161836 0.16363314 -0.063816294
000170 ee 4d c9 bd 31 e6 40 bd 59 b0 13 be d4 81 ba 3d
       -0.09829317 -0.047094528 -0.1442274 0.09106794
000180 ef 87 1b 3e b5 ca d0 bd f1 95 86 bd 83 f0 28 3e
       0.15188573 -0.10194913 -0.06571568 0.16497998
000190 c6 f2 02 be da 1b 44 3d fd 7c 13 be 8e 1d 21 be
       -0.12787923 0.047878124 -0.14403148 -0.1573393
0001a0 3a 3d 8c 39 0b a1 ce bd 30 13 c4 3d 13 f6 5f bd
       0.00026748498 -0.1008931 0.09573972 -0.054678034
0001b0 15 4b e4 3a 37 03 bd bd 3b c6 94 3d f3 b7 27 3e
       0.0017417396 -0.09229129 0.07264372 0.16378765
0001c0 5f b3 d9 bc 3e 74 df bd 6e 8d 30 be d4 76 2d 3e
       -0.026574789 -0.10910843 -0.17241451 0.1693986
0001d0 43 97 98 3d 57 84 95 3d fc 8d f6 3c 61 aa b5 3d
       0.07450726 0.073006324 0.030097 0.08870388
0001e0 49 90 80 3d 53 c6 b0 3d b6 6c e2 3d 31 59 cd 3c
       0.0627752 0.08631577 0.11055891 0.025066944
0001f0 3a eb 1b 3e 7a 1f e1 3d aa 52 b1 bb 1b b4 a1 bd
       0.1522645 0.10992332 -0.0054114657 -0.078956805
000200 86 ff 3f 3c de fa 0c 3e fe 57 e5 3d f8 b4 92 bd
       0.011718636 0.13767573 0.11198424 -0.07163423
000210 ac 2a 17 bd 74 be 8f 3d c7 68 88 3d c0 5f 2c 3e
       -0.03690593 0.07018748 0.0666061 0.168334
000220 20 cd af 3d 4f ae 66 3d 09 59 27 3d 29 1f 2a be
       0.08584046 0.056318577 0.040856395 -0.16613449
000230 a5 61 85 bd 6d 44 99 3c 52 db fb bd 71 9a 1e be
       -0.06512765 0.018709386 -0.122976914 -0.15488602
000240 2b 4c f4 3d 52 43 76 3d 90 13 12 be e1 e6 2b 3c
       0.119285904 0.060122795 -0.14265275 0.010492058
000250 7a 36 d5 3d b6 8f d0 3d f4 4e 25 3e b4 26 8f bd
       0.10410781 0.10183661 0.161434 -0.06989804
000260 a1 34 a1 3d f5 d6 12 be 15 a1 b2 bc 45 41 e6 bd
       0.07871366 -0.14339812 -0.021805326 -0.11242918
000270 2f e0 09 bd 49 1a ce 3d 3c 7c b4 3d 0a 70 be bd
       -0.033661064 0.10063607 0.08812758 -0.092987135
000280 5f 8c 33 bd 00 db 10 bd ad ba 89 bd a1 52 c6 bd
       -0.04383504 -0.035365105 -0.06725059 -0.09683729
000290 15 ec 04 3e 73 40 fa 3d b3 1e 17 3e b5 cc c6 bd
       0.12980683 0.12219324 0.14757805 -0.097070135
0002a0 d7 8e 04 3e 12 90 5b bd ab 1d 2a bd 3f f2 42 bd
       0.12945114 -0.053604193 -0.0415322 -0.047594305
0002b0 41 d5 0c bc 44 89 9e bd e9 0b c6 3c 13 59 e9 bd
       -0.008595766 -0.07741025 0.024175601 -0.11393943
0002c0 f4 e6 94 3d 94 ce 17 be 59 3f 83 bd 33 de fc bd
       0.07270613 -0.14824897 -0.06408567 -0.12347069
0002d0 59 38 f4 3d f1 bc f8 3d 8c f9 0f be de 8d c5 bd
       0.1192481 0.12145413 -0.14060038 -0.096462
0002e0 6a 02 22 3e 58 fd 52 3d 7c 4a f9 3d 9b c7 0a be
       0.15821233 0.05151114 0.1217241 -0.13552706
0002f0 9c 65 a3 3d cc 73 e6 3d 33 00 28 bd 22 77 05 bc
       0.07978365 0.11252555 -0.041015815 -0.008146079
000300 d3 fe 03 3e f1 70 45 3d ea c2 4f 3d a9 f3 0c 3a
       0.12890176 0.048203412 0.050722994 0.00053768844
000310 7b 25 97 bd ae 98 dd bd b9 a4 34 3e cf cd 64 bc
       -0.07380196 -0.10820137 0.17640962 -0.013965084
000320 54 a4 20 3e 19 1c 14 3e 5e 50 bd bd cc dd 44 3c
       0.15687686 0.14463843 -0.092438444 0.012015771
000330 be 35 39 bd 7c 5b 52 bb 00 9b ee 3d 77 5b c7 3d
       -0.04521727 -0.0032097986 0.11650658 0.097342424
000340 58 a2 cd bd ff 23 b3 bd c1 98 00 be 3e b1 19 be
       -0.1004073 -0.087471 -0.12558271 -0.15009019
000350 f6 3e e8 3d d9 b5 df bd ff 66 17 3b 83 d1 7b b9
       0.11340134 -0.109233566 0.0023102162 -0.00024015275
000360 77 bd f7 3c e9 74 29 bc 14 e0 bb 3d 5e e1 c6 3c
       0.030241711 -0.010342815 0.09173599 0.024277385
000370 81 ce 01 3e 7a 4c 1c 3d 95 7f 10 bb c6 34 cd 3c
       0.12676431 0.03815887 -0.00220487 0.025049578
000380 e7 4c f1 3d 70 93 da 3c 57 0c ff 3d be 52 89 bc
       0.11782246 0.026681632 0.124535255 -0.016763087
000390 69 e7 c8 3a 17 15 18 3e 12 e6 2a be 96 77 90 3c
       0.0015327755 0.14851795 -0.16689327 0.017635148
0003a0 5d 56 25 3e e3 ac b5 bd d7 8f 05 bd 34 7f 2e bc
       0.16146226 -0.08870866 -0.03260788 -0.010650445
0003b0 8d 8b 6e 3d 8e d6 88 3d 3e 08 24 3d a8 d0 8e 3d
       0.058238555 0.06681548 0.040046923 0.06973392
0003c0 c0 55 9b bd 17 50 98 3d 8e 97 65 bd 6a 7b e3 3d
       -0.07584715 0.07437151 -0.056052737 0.11107524
0003d0 a3 81 54 bd bc 23 1a be c0 d8 4e 3c dc 62 bc 3d
       -0.051881444 -0.15052694 0.012624919 0.091985434
0003e0 2a 06 e3 bb 13 62 16 3b 15 34 24 3a 63 25 c0 3d
       -0.006928225 0.002294664 0.00062638643 0.09382131
0003f0 d7 9e 62 3c 2e b6 21 be bb 18 01 be a0 33 2b 3c
       0.013831816 -0.15792152 -0.1260709 0.01044932

fc2.bias f4 [16]
000000 1d 8a 2a 3e ad a2 05 3e d5 94 f0 3d 46 b3 5b 3c
       0.16654249 0.13050337 0.117471375 0.013409441
000010 94 68 04 3c a8 62 0c be c2 69 93 3c b7 11 30 3e
       0.008081574 -0.1370951 0.017994765 0.17194258
000020 b2 1c 19 3c fb 89 21 be dc b5 c6 3d 26 75 22 3e
       0.00934522 -0.15775292 0.09702656 0.15865001
000030 9f c1 17 3e 95 9a 08 3c 0b 07 08 3d 0c 5b ea 3c
       0.14819954 0.0083376365 0.03320984 0.028607868

fc3.weight f4 [1, 16]
000000 24 d8 d1 bd b0 69 15 bd b2 d8 50 3e 70 f1 d0 3c
       -0.10246304 -0.036477745 0.20395163 0.025505751
000010 bc 46 71 3e 4c 00 2a be 98 a7 15 bd 00 ff 3f 3b
       0.2356214 -0.16601676 -0.036536783 0.002929628
000020 ea 5c 18 be 54 a7 45 3e 14 cb 32 3e 50 16 0a be
       -0.14879194 0.19302112 0.1746028 -0.13485074
000030 30 88 61 3e 5e b6 6e 3e 0e 86 16 be 80 47 0d bc
       0.22024608 0.23311755 -0.14699575 -0.008623004

fc1.weight f4 [16, 14]
000000 0f e4 7f be 76 db 8e bd c0 89 62 3e 81 55 d7 3c
       -0.24989341 -0.069754526 0.2212286 0.026285889
000010 91 53 c6 bd 76 fb 13 be 9f 2b 89 bd b9 78 17 be
       -0.09683908 -0.14451393 -0.06697773 -0.14792146
000020 d0 8e 96 bc ff 4f 7f 3e de 83 15 3e a1 e5 b0 bd
       -0.018378645 0.2493286 0.14601085 -0.08637548
000030 27 0c 2a 3e 97 51 7e be 28 7d 33 3b 70 4c 67 3e
       0.16606198 -0.24835812 0.0027387831 0.22587752
000040 d2 f7 76 3d 5c 70 5e be 43 ff 44 3d 9e ae 28 3e
       0.060294934 -0.21722549 0.048095 0.16472861
000050 8e ff ab bc 89 26 21 3e a5 6e 67 be 0f c1 3a 3e
       -0.020995881 0.15737356 -0.22600801 0.18237709
000060 13 69 85 be c4 77 ef 3d 26 b7 6a be 0e d0 a6 bd
       -0.26056728 0.11692765 -0.22921428 -0.08145152
000070 a6 b0 ce bc 65 af 25 bd 74 0a f4 bc 19 22 51 be
       -0.025230717 -0.040450472 -0.02979014 -0.20423163
000080 56 d4 43 be 36 c4 2c 3e b5 a5 82 3d 97 7a e4 3c
       -0.19123968 0.16871724 0.06379262 0.027890487
000090 41 06 3e bd 28 1f 8e 3d 55 90 6e 3d 06 08 6c bd
       -0.046392683 0.06939536 0.058243115 -0.05762484
0000a0 d2 a6 9e 3c 70 44 aa 3c 81 28 71 3e 80 2a 7a be
       0.019366655 0.020784587 0.23550607 -0.24430275
0000b0 c7 dc 33 be c0 cb f5 bd 91 b7 ed 3d 7a 32 3a be
       -0.17564689 -0.12001753 0.11607278 -0.18183318
0000c0 26 67 04 be 2e aa f0 bd ee 85 bb bc 63 cf 7f be
       -0.12929973 -0.11751209 -0.022891011 -0.24981456
0000d0 54 0f 45 3d 23 a5 4e 3e 77 38 2b 3e c1 8f 55 be
       0.04811032 0.20180182 0.16720758 -0.20855619
0000e0 fb 0b a5 bd c1 0c 0f 3e 7b fb c3 3d e6 17 f4 3d
       -0.08058926 0.13969709 0.095694505 0.11918621
0000f0 a2 15 e5 3d 98 e2 83 bd 4e eb 34 3e 1a 1b 80 3e
       0.11185767 -0.06439704 0.17667887 0.25020677
000100 a4 6e ca 3d 70 73 34 bd b1 fe ed 3d 25 e4 3d 3e
       0.09884384 -0.044055402 0.11620844 0.18544061
000110 9b 77 58 be 40 01 97 3d 45 9c 02 be 25 6e 5e 3c
       -0.21139376 0.07373285 -0.12754925 0.013576065
000120 59 86 35 be a9 ac 4a bd bc 9d 86 3a 63 97 29 be
       -0.17727031 -0.049481068 0.0010270397 -0.16561656
000130 c9 e3 45 be 9d 44 ff 3d 3a 5e 06 be 34 63 3d 3e
       -0.19325174 0.12464259 -0.13121882 0.18494874
000140 8e de ff bd fa d5 64 3e ee cb 10 3c 5e 41 1f be
       -0.12493621 0.2234725 0.008837683 -0.1555228
000150 1b a9 45 bc c2 e4 bb bd 1a c9 43 3d 9a ee e5 3d
       -0.012064244 -0.091744915 0.047799207 0.1122715
000160 37 9e 7a be f7 cd 26 3d 25 5d 11 3e 24 90 f7 bd
       -0.24474417 0.040723767 0.14195688 -0.120880395
000170 a6 d4 a7 3b 9d b6 12 3e 49 ab 54 be 9e 94 4b 3e
       0.005121785 0.14327474 -0.20768465 0.19880912
000180 32 3c 65 be 0d a4 a5 bd 20 e8 ac 3d 28 99 35 bd
       -0.22386244 -0.08087931 0.08442712 -0.044335514
000190 21 18 85 be 38 86 3a be 17 6f 62 bc 4a ec cb bd
       -0.2599497 -0.18215263 -0.013820431 -0.09957178
0001a0 83 0a 42 bd e7 a7 36 3e 64 26 f1 bd e3 ef cd 3c
       -0.047373306 0.17837487 -0.117749006 0.025138801
0001b0 ae 03 6c be af 95 ea bd a3 fe 5c 3e 04 e1 e3 3d
       -0.23048279 -0.11454331 0.21581511 0.11126903
0001c0 79 97 99 bb c0 8f dd bd 6f 1f 52 be 27 6e 09 3e
       -0.0046872464 -0.10818434 -0.20519803 0.13420926
0001d0 97 f0 f1 bd 3f 93 13 bc e5 d7 23 be 11 8e c7 bd
       -0.11813467 -0.009007274 -0.16000326 -0.09743894
0001e0 19 c2 2f 3c f5 9e 25 bd 47 0e 9c bc 69 9b 52 bd
       0.010727429 -0.040434796 -0.019049777 -0.051417742
0001f0 c5 5e d5 3d 30 ae 53 3d 20 f1 75 3e 3e a9 97 3c
       0.104184665 0.05167979 0.24017763 0.018513318
000200 bf 38 76 be df 00 5f bc 9a 30 5f 3e 58 ec d3 bd
       -0.24045084 -0.0136110475 0.21795884 -0.10347813
000210 eb 01 06 3c 4d b3 6b 3c a6 b3 3e be c6 45 82 3e
       0.008179168 0.01438601 -0.18623218 0.25443858
000220 2d e2 83 bd 07 3f 4b be 33 5f 42 be a1 00 25 be
       -0.06439624 -0.19848262 -0.18981628 -0.16113521
000230 c4 f3 83 be 74 24 52 3e 73 c7 74 3e 3a 84 61 be
       -0.25771916 0.20521718 0.23904209 -0.22023097
000240 02 3a 1a be 21 b8 04 3e 6f 5a 92 bd 18 40 85 3e
       -0.1506119 0.12960865 -0.07146155 0.26025462
000250 1d 8f 0b be 9f 3a d5 bd 5f c5 60 be 4e f3 a9 bd
       -0.13628812 -0.10411572 -0.21950291 -0.0829836
000260 ba 86 39 3e 48 9e 2e bd f7 3b 7b be 9c 27 17 3e
       0.181178 -0.042631418 -0.24534594 0.14761204
000270 f7 cd 18 be 27 82 a2 3d 2e 90 85 3e dd 7d fc 3d
       -0.1492232 0.07934981 0.26086563 0.12328694
000280 30 3e 64 3e a6 15 4d be 9a 06 4e be 9b 52 85 be
       0.22289348 -0.2002779 -0.20119706 -0.26039585
000290 c1 28 37 3e 29 0c 47 bd cf f5 d1 3d df a6 30 be
       0.1788664 -0.04859558 0.102519624 -0.17251156
0002a0 64 39 a2 3c da f7 7c 3e 98 5a 38 3c 04 f4 66 3e
       0.019802757 0.24703923 0.011252068 0.22554022
0002b0 e0 4b 3a be 36 2c d7 3c 3b 01 73 bd 3e 7e 79 be
       -0.18193007 0.026266199 -0.059327345 -0.24364564
0002c0 43 98 0b be 70 b2 d5 bc f1 32 83 be 27 be 42 3e
       -0.13632302 -0.026086062 -0.25624803 0.1901785
0002d0 fe 53 1a be 32 b3 68 bc ce 3c 3c bb 37 97 83 be
       -0.15071103 -0.01420288 -0.0028722766 -0.25701305
0002e0 77 83 f7 bd 24 02 30 3d ba ba 9c bd fc 52 21 3e
       -0.12085622 0.04297079 -0.07652803 0.15754312
0002f0 c3 2c 9c 3d 23 70 ce 3d 10 4a 1a 3e 2b 50 38 3d
       0.07625725 0.10079982 0.15067315 0.04499833
000300 b8 87 70 be 7b 87 ee 3d 00 6f 99 bd 53 cb 60 3d
       -0.23489273 0.116469346 -0.07491875 0.054881405
000310 84 a0 b8 3d 3f 71 9c 3d bb 51 46 3e 91 c3 7d 3e
       0.09014991 0.076387875 0.19367115 0.24781634
000320 d7 1a 49 be 8e df fe bd 9b 5c e9 3d 41 cb bc bb
       -0.19639145 -0.124449834 0.11394616 -0.0057615344
000330 5a ab 77 3d db 21 74 be bd a6 de bd 6e 28 8e bb
       0.060466148 -0.2384104 -0.108716466 -0.0043383157
000340 ed 4a 5f 3e e9 0f 49 be 96 f3 79 3d 83 92 07 3d
       0.21805926 -0.19634975 0.061023317 0.03309871
000350 40 40 ed bd 78 93 ec 3d a3 43 71 3e 07 1c 63 3e
       -0.1158452 0.11551565 0.23560958 0.2217866
000360 26 3f 79 bd db 25 48 bc 43 5e 36 bc 2d 54 20 3e
       -0.06085124 -0.012216057 -0.011130872 0.1565711
000370 57 b9 13 be b1 45 88 3d 6e 65 1d 3e 06 6a 1c 3e
       -0.1442617 0.066539176 0.15370724 0.1527482

fc1.bias f4 [16]
000000 18 2d dc bd bd 4f 1c 3e 19 85 68 be 7c d4 a8 bd
       -0.107507885 0.15264793 -0.22707023 -0.08243653
000010 18 96 5c 3e e4 4a fe bd 53 ed 22 3c da 51 81 3e
       0.21541631 -0.12416628 0.009944278 0.2525776
000020 c2 5f 05 3d 8d c6 d5 ba c6 c8 84 3d 96 d1 42 be
       0.032562025 -0.0016309783 0.06483607 -0.19025263
000030 56 e7 86 be 3c 65 01 3e 53 ce ea bc 01 59 f8 3d
       -0.2634837 0.12636274 -0.028662836 0.12126351

fc2.weight f4 [8, 16]
000000 60 5e 51 bc 7a 6c 39 3e b0 e2 34 be 6e 37 03 be
       -0.012778848 0.18107787 -0.176646 -0.12814113
000010 6c 8e 62 be 78 52 53 be d6 07 46 3e 40 ff 5a bd
       -0.22124642 -0.20636928 0.19338927 -0.05346608
000020 ce d9 00 be 7c ef a2 bd e0 7e aa bc c8 7a 9b bd
       -0.12583086 -0.07955834 -0.020812452 -0.07591778
000030 04 6b 73 be 5c a6 2e 3e 40 66 66 bc f2 4d 38 be
       -0.23771292 0.17055649 -0.014062464 -0.17998484
000040 8c 6f 92 3d 10 58 a0 bd cc 42 8a bd f0 68 4b be
       0.07150182 -0.078292966 -0.06751022 -0.19864249
000050 b4 3f 7a be c4 28 99 3d 14 79 64 be 1c 10 26 3e
       -0.24438363 0.074784786 -0.22311813 0.16217083
000060 28 10 68 be 78 27 03 bd a6 b3 46 be 0e 4d 32 be
       -0.22662413 -0.032020062 -0.19404468 -0.17412207
000070 8e ca 54 be 28 b5 10 be 70 87 81 3c 50 9f ee 3c
       -0.20780393 -0.14131606 0.015811652 0.0291287
000080 cc 22 ea bd f0 57 19 3e a4 d0 c1 bd 60 36 b7 bc
       -0.11432418 0.14974952 -0.09463623 -0.022364795
000090 3e 62 06 3e e2 34 6b 3e 74 67 59 3e 02 a7 70 be
       0.13123414 0.22969392 0.2123087 -0.23501208
0000a0 d2 6f 33 be 28 c9 2e 3d 00 eb 35 bb ba 65 43 3e
       -0.17523125 0.042672306 -0.002775848 0.19081774
0000b0 da 42 0c 3e 4e a3 3a be a2 79 6c 3e 80 a7 98 3d
       0.13697377 -0.18226358 0.23093274 0.07453823
0000c0 34 f1 02 3e 90 7e 3c bd da fc 3a 3e dc 58 2e be
       0.12787324 -0.046019137 0.18260518 -0.17026085
0000d0 60 f4 e1 3d 4e a5 7d 3e 2c f7 94 3d 64 67 b2 bd
       0.11032939 0.2477009 0.07273707 -0.087111264
0000e0 c0 10 07 3c d4 d2 39 3e 78 9f 14 be 40 96 ff bd
       0.00824374 0.18146831 -0.14513958 -0.1247983
0000f0 38 81 23 3d 48 5b de bd ac a3 8b bd f4 ba b7 bd
       0.039918154 -0.10857254 -0.06818327 -0.08971205
000100 92 10 0c 3e 38 56 5c be d0 97 5b be 8e 81 47 3e
       0.13678196 -0.21517265 -0.2144463 0.19483015
000110 00 3f 0f bd e8 e5 60 be 58 bd f4 3d 7e 50 23 be
       -0.03497219 -0.21962702 0.11950177 -0.15948674
000120 20 af 64 bc 04 76 1b 3e 38 3a 10 be 40 d8 44 be
       -0.013957769 0.15181738 -0.14084709 -0.19223118
000130 a0 50 0f 3d f4 49 fb bd 58 6d 6f bd bc 88 3a 3e
       0.034989 -0.12269965 -0.058453888 0.18216223
000140 18 2d 57 3d 44 7c 92 3d de 29 67 be 92 44 1e be
       0.05253324 0.07152608 -0.22574565 -0.15455845
000150 aa 3a 31 be 68 a5 79 3e 84 66 c0 bd 32 a2 76 3e
       -0.17307535 0.24379504 -0.09394553 0.2408531
000160 ce 20 7c 3e 4e 96 1c be 74 3e da 3d 34 b5 ca bd
       0.24621889 -0.15291712 0.10656443 -0.09897843
000170 86 28 76 3e 5e b9 38 3e e0 77 90 3d 28 43 05 3e
       0.24038896 0.18039462 0.07054114 0.130139
000180 08 7c 0c bd c8 d9 03 bd 88 f1 09 bd e0 27 eb bd
       -0.034297973 -0.032190114 -0.033677608 -0.11482215
000190 d2 24 57 be 70 1c 07 bd 10 21 9b bd 70 22 51 3e
       -0.2101014 -0.032986104 -0.075746655 0.20423293
0001a0 12 d9 69 3e a4 4f 64 be 88 10 4b be fc b2 fb bd
       0.22836712 -0.22296005 -0.19830525 -0.12289998
0001b0 10 03 7a be b0 48 95 bc f8 72 86 3d b0 8e d9 bc
       -0.24415231 -0.018223137 0.06564897 -0.026557297
0001c0 68 38 78 3d 50 f3 2c bd ca d1 77 be ce bc 10 be
       0.06060067 -0.04222423 -0.24201122 -0.14134523
0001d0 12 31 78 be de 6c 11 be 3a 3c 15 be 40 0d 3b 3e
       -0.24237469 -0.14201686 -0.14573756 0.18266773
0001e0 8c dc b1 bd c0 cc 4f bd e4 5d 46 be ac b0 a8 bd
       -0.08684644 -0.050732374 -0.19371754 -0.082368225
0001f0 a0 a1 09 3d c8 bc 60 3d e0 17 68 3e bc f3 d3 3d
       0.033601403 0.054867536 0.22665358 0.10349223

fc2.bias f4 [8]
000000 40 a4 ae bc a6 0a 3d 3e 14 12 11 be c0 63 c5 bc
       -0.021318555 0.18461093 -0.14167053 -0.024095416
000010 60 c7 4d 3d 64 2b 91 3d a0 0f ab bd d0 de e5 3c
       0.050238967 0.07088354 -0.083525896 0.028060347

fc3.weight f4 [2, 8]
000000 d4 ae 12 3e 03 53 ae bc a8 7f eb bd cf 99 a4 be
       0.14324504 -0.021279817 -0.11498958 -0.32148597
000010 47 b9 5a be 1a 5b b4 be 33 b5 8a bd da f4 8f be
       -0.2135974 -0.35225755 -0.06772842 -0.28116494
000020 c3 ad 22 be fb 77 8e 3e e0 bf a9 be cd cf 70 3e
       -0.15886597 0.27825913 -0.33154202 0.2351677
000030 16 25 16 bc dd 4b 43 be 74 0c a9 3e f5 cd 96 3e
       -0.009164115 -0.19071908 0.33017313 0.29454008

fc3.bias f4 [2]
000000 87 f6 4a be 1c be 66 3c
       -0.19820605 0.014083412

fc1.weight f4 [32, 20]
000000 8f 05 bd bd 98 25 55 be d1 8e ed 3d e1 15 f9 3d
       -0.09229576 -0.20815122 0.11599506 0.12162376
000010 22 79 43 3e 95 2e 0a be 44 f9 75 bd 1e 4c f1 3d
       0.19089177 -0.13494332 -0.06005217 0.11782096
000020 f2 da ff bd 86 e0 47 3e 47 63 96 3b b9 06 21 3d
       -0.124929324 0.19519243 0.0045894715 0.03931305
000030 df d2 a5 3d c6 1d 09 3e 0e a4 6c 3d 25 6b 06 be
       0.08096861 0.13390264 0.057773642 -0.1312681
000040 1f 54 4d 3e c9 72 ca bd 18 9f e3 3c ae cb 63 be
       0.20051621 -0.09885175 0.027785823 -0.22245666
000050 eb 09 c4 bd 06 ca 26 3e 44 90 db 3c 07 71 a5 3c
       -0.09572204 0.16288003 0.02680219 0.020195497
000060 b0 d6 af bd 1f 15 3a be 7b 9e 2b 3e 87 6b 1c be
       -0.0858587 -0.1817212 0.16759674 -0.15275393
000070 2e a0 25 3e d3 5d 03 be 15 c4 3b 3e 99 38 08 3c
       0.16174385 -0.1282876 0.18336518 0.008314275
000080 f8 58 12 be b9 1f 61 3e 9e 6d 38 3e 91 c5 f3 bd
       -0.14291751 0.21984757 0.18010566 -0.11902917
000090 3f fd 04 be 54 35 80 bd ad 36 8b bb 3d 00 1e 3e
       -0.1298723 -0.062601715 -0.004248461 0.15429778
0000a0 49 eb 0b be 7d f0 dd 3d d6 57 4b 3e 1e 2a 9e 3d
       -0.13663973 0.10836885 0.19857726 0.07722877
0000b0 7d 2e ac bd 5a 5f 58 3e 50 80 aa bd e4 00 16 3d
       -0.084073044 0.21130124 -0.08325255 0.036621943
0000c0 f3 85 1e be 6d a6 bb 3d e6 7a 60 be d6 ec a4 3d
       -0.15480785 0.091626026 -0.21921882 0.08052985
0000d0 50 ec 25 be 34 db 58 be 57 29 af bd 0f 23 28 3e
       -0.16203427 -0.2117737 -0.08552807 0.16419624
0000e0 b6 6a d4 3d 14 52 3c be cc cb f0 3d b1 f5 68 bd
       0.10371916 -0.18390685 0.11757621 -0.056874935
0000f0 1a 9b d8 bd 77 70 59 be a8 6a e3 bd 36 1d 57 3e
       -0.10576458 -0.21234308 -0.111043274 0.21007237
000100 c4 44 0d be 0f 97 1f 3e 7c d7 9f bd 69 9b 53 be
       -0.13795763 0.15584968 -0.07804772 -0.20664753
000110 28 e8 07 be 87 f9 9e 3d 8f 5f cc 3d f2 60 3e 3d
       -0.13272154 0.07762437 0.09979164 0.046479173
000120 6c de 7d 3d f6 11 9a bd 63 33 02 bc b2 f8 6e 3d
       0.061979696 -0.07522957 -0.007946822 0.058342643
000130 62 68 ed bc 25 5a 35 3e b9 62 47 3e 10 9f 4b 3e
       -0.028980438 0.17710169 0.19471253 0.19884896
000140 09 51 4e 3e b6 2a 5e be 0c 76 8f bd 6f 43 17 3e
       0.201481 -0.2169598 -0.070049375 0.14771818
000150 f3 f1 15 3e 64 b1 b1 3c ec d4 8d 3d e3 e8 f4 3c
       0.14643078 0.021691032 0.06925377 0.029896205
000160 1d 62 0c 3d 9b dd 9e bd a6 ed ad bc dc 2d e9 3d
       0.034273256 -0.07757112 -0.021231484 0.113857
000170 f3 12 58 3e 41 ef 54 bd 7e ba 17 3e 10 ff 5c 3e
       0.21100979 -0.051985983 0.14817235 0.21581674
000180 7a 80 5e 3d 6a 00 3c 3e 8c b8 ee 3d cd 06 48 be
       0.054321744 0.18359533 0.11656293 -0.19533844
000190 1f 71 0b be bc 4f b3 3d 48 db b3 bd e2 f2 8b bd
       -0.13617371 0.087554425 -0.08782059 -0.068334356
0001a0 73 83 80 bd 6c 58 3b be 7d 6c 3d bc 24 e2 23 3d
       -0.06275072 -0.18295449 -0.01156151 0.040010586
0001b0 c5 ed 14 bd c5 3c 14 be 94 57 1d be 66 39 3f 3e
       -0.036359567 -0.14476307 -0.1536544 0.1867424
0001c0 dd c2 44 3e 6e f9 db bd d5 ac 1c be 02 cd 41 bd
       0.1921496 -0.10740934 -0.15300305 -0.04731465
0001d0 9b 64 04 be 25 86 5f be e8 de 27 be 50 5b 44 3e
       -0.12929003 -0.21828516 -0.16393626 0.19175458
0001e0 0c c9 64 bd 12 cb 2d 3e 17 84 b5 3d d2 0c 84 bc
       -0.055855796 0.16971996 0.08863085 -0.016119394
0001f0 09 d2 a7 bd ff f4 1c 3e de 5f 63 bd ea dc 17 be
       -0.08194358 0.15327834 -0.055511348 -0.14830366
000200 96 98 b0 3d 7a 08 d3 bd 45 55 d9 3d 70 97 74 3d
       0.086228535 -0.10304351 0.10611967 0.059714735
000210 62 61 47 be 4b ec db bd 48 83 16 3d e9 1d e7 3b
       -0.19470742 -0.10738429 0.036746293 0.007053126
000220 e6 1f 2b 3d ed 0b 51 bc bf ca 50 bd cb 45 0a bd
       0.041778468 -0.012759191 -0.050974604 -0.033757966
000230 3d 71 dc 3d 39 e7 b6 bd 2e 79 98 bd 00 86 50 3e
       0.10763786 -0.08930821 -0.07444988 0.20363617
000240 96 0b 55 3e 6a 3b 27 3e 03 f6 44 3e 38 6e 16 be
       0.20805201 0.16331258 0.19234471 -0.14690483
000250 cc b9 78 bd 32 ee 27 be cc 8e c5 bd 7d f2 ee 3d
       -0.060724065 -0.16399458 -0.09646377 0.11667345
000260 d1 d6 55 3e 26 bf 59 be 35 34 1e 3e e4 b1 b6 bd
       0.20882727 -0.21264324 0.15449603 -0.08920649
000270 5a fa 36 3e c8 cb 42 3d 92 0c 11 be 5b be 16 3e
       0.17868939 0.047557622 -0.14164951 0.14721052
000280 5f ec 0d be 64 dc bd bd 90 24 e7 bd e1 a7 cb 3d
       -0.138597 -0.09270552 -0.112862706 0.0994413
000290 a5 e7 a9 3d 3f c8 f1 bd 58 97 08 be a0 84 18 3d
       0.08296136 -0.11805772 -0.13338983 0.037235856
0002a0 1d 49 d2 3d 17 54 dd 3d cb 15 3a be 09 ad 9b 3d
       0.102678515 0.108070545 -0.18172376 0.07601363
0002b0 39 c4 4e be fc d9 35 bd 94 01 91 bc 00 a9 4f be
       -0.2019204 -0.04439734 -0.017700948 -0.20279312
0002c0 62 77 05 3e cd 60 27 be c4 f3 2b 3d be 55 e7 bd
       0.13033822 -0.1634552 0.04198052 -0.11295651
0002d0 01 6f dc 3d 37 0c 82 3d 4e 67 d4 3d 62 10 ba bc
       0.1076336 0.06349986 0.10371266 -0.02271289
0002e0 6b 48 cd bd 31 8a b1 bd 24 5d 26 3e 99 20 59 3d
       -0.10023578 -0.08668936 0.16246468 0.053009603
0002f0 10 fc d0 bd 0e 6d e7 bd 8a 36 4b bd cb 2d ae bd
       -0.10204327 -0.113000974 -0.04961256 -0.08504828
000300 34 c1 ab bd 77 43 56 3e 13 a8 ef bd 65 26 63 3e
       -0.0838646 0.20924173 -0.117019795 0.22182615
000310 7c e8 3d 3e b8 0f 08 be 77 11 cb 3d bf e0 4f be
       0.18545717 -0.13287246 0.099154405 -0.20300578
000320 6f 2e bb 3c fc ca 15 be 9b b9 14 be d4 21 87 3d
       0.02284929 -0.14628214 -0.14523928 0.06598249
000330 25 52 c4 3d 1e 48 68 bd 53 4b e4 bc 4d df a2 3d
       0.0958598 -0.0567094 -0.027867949 0.079527475
000340 5e 48 5b be 05 a3 0f 3c 81 61 5d be 8d f8 98 bd
       -0.21414325 0.008766894 -0.21619226 -0.07469282
000350 42 00 47 3e 64 6d a3 bd 77 e0 c9 bd 58 1a 56 be
       0.19433692 -0.07979849 -0.098572664 -0.20908487
000360 60 4f 5e 3e 04 2a a4 3d 96 c3 30 be 9d 00 56 bd
       0.21709967 0.08015826 -0.1726211 -0.05224668
000370 22 af 38 3e a7 16 5c be 0e 88 a3 3c 45 c7 28 be
       0.18035558 -0.21493016 0.019962337 -0.16482265
000380 ab b3 2c be 19 4f 44 bd 7e 93 b4 3d 2f 94 62 be
       -0.16865413 -0.047926996 0.088171944 -0.2212684
000390 20 e7 fc bd 24 12 37 be 51 8b 3d bd 19 2b d5 bd
       -0.12348771 -0.17878014 -0.04627544 -0.10408611
0003a0 8a ee f7 3d b1 0f 1f 3a a2 cf ed bc 83 27 48 be
       0.121060446 0.0006067707 -0.029029671 -0.19546323
0003b0 54 fb d2 3b 54 0b 5e be b4 40 4d be 23 32 bb 3d
       0.006438652 -0.21684009 -0.20044214 0.09140422
0003c0 3e c1 63 be 51 00 2c 3c b1 0f 5c 3d f0 a6 5e bc
       -0.22241685 0.010498122 0.053725902 -0.013589606
0003d0 6b c2 19 3e cb ac 47 bd 38 32 1f 3e 6b fb 01 be
       0.15015571 -0.048748773 0.155465 -0.12693565
0003e0 45 a2 35 be 2f b8 16 be 5f 04 fa 3d bb 9a a5 3c
       -0.17737682 -0.14718698 0.12207865 0.020215383
0003f0 d8 77 df bc f4 bd c7 bc cb c0 b9 bd f7 45 3a 3d
       -0.027278826 -0.024382569 -0.090699755 0.04547688

fc1.bias f4 [32]
000000 6f a4 52 be f1 5b cd bd 0c 26 d2 bd 05 fb 5d 3e
       -0.20570539 -0.10027302 -0.10261163 0.21677788
000010 8c 19 e5 bd 3c 79 bd bb f9 f1 82 bd 31 3d 34 be
       -0.11186513 -0.0057822745 -0.06393809 -0.17601468
000020 63 ff 81 3d 43 87 28 be 41 4d ae 3d 64 d0 b9 bd
       0.06347539 -0.16457848 0.08510829 -0.090729505
000030 47 4d ca 3d 1b 82 16 3e ba ff 2f 3e 78 67 57 3e
       0.09878021 0.14698069 0.17187396 0.21035564
000040 15 f3 43 bd 6c f7 62 be 4d 09 95 bd b3 ed 5c be
       -0.047839243 -0.22164696 -0.072771646 -0.2157505
000050 52 14 18 3d a3 d0 4e be e8 27 15 bd c3 9d 3c 3e
       0.037128754 -0.20196776 -0.03641501 0.18419556
000060 ce 02 00 bc 98 08 7b 3b a5 70 54 3e ea ff e2 bd
       -0.007813169 0.0038304683 0.20746095 -0.11083968
000070 c8 47 54 be ed f8 f2 3d 4d a3 1b 3e 3c 8d 99 bc
       -0.20730507 0.11863885 0.15199013 -0.018744104
